model.pkl (torch_old, 249657 bytes, 10 tensors)

0.weight f4 [6, 3, 5, 5]
0	0xbd9454ab	-0.07242712
1	0xbd0aa34d	-0.033847142
2	0xbdabad7a	-0.083826974
3	0xbdbf68ff	-0.09346198
4	0x3ddf871d	0.10914443
5	0x3e3dfdb3	0.1855381
6	0x3e106e43	0.14104562
7	0x3e3ec627	0.18630277
8	0x3c354143	0.011062923
9	0x3d8f5e3a	0.07000394
10	0x3ed9e441	0.42556956
11	0x3eeabc65	0.4584686
12	0x3e87527b	0.26430115
13	0x3e851858	0.25995135
14	0x3e3a425d	0.18189378
15	0x3e89f749	0.26946476
16	0x3eeca335	0.46218267
17	0x3eae5a8a	0.3405345
18	0x3eae955d	0.3409833
19	0x3e569395	0.20954736
20	0x3ecd1314	0.40053618
21	0x3ebd83d6	0.37014645
22	0x3ed5eb45	0.4178106
23	0x3e7453cd	0.23860092
24	0x3e2575f9	0.16158284
25	0xbe33cbf3	-0.17558269
26	0xbe8b013b	-0.27149376
27	0xbece6e77	-0.40318653
28	0xbeafc140	-0.34327126
29	0xbe6beb74	-0.23039037
30	0x3c59c077	0.013290516
31	0xbd0b2981	-0.033975128
32	0xbe8400c7	-0.25781843
33	0xbe8f2870	-0.2796054
34	0xbe26fd40	-0.16307545
35	0xbe024cd7	-0.12724625
36	0xbe24dd1b	-0.1609997
37	0xbdbde45f	-0.09272074
38	0xbebfb5fe	-0.37443537
39	0xbea99c21	-0.3312693
40	0xbcd4c017	-0.025970502
41	0xbde22bf1	-0.110435374
42	0xbd5aa3e0	-0.05337894
43	0xbe9f21e2	-0.31080538
44	0xbea8aa6b	-0.3294252
45	0xbdbd4548	-0.0924173
46	0x3cf2c578	0.029635176
47	0x3cfd64cc	0.030931853
48	0xbdedc3f2	-0.11609639
49	0xbe9f2966	-0.31086272
50	0xbd869d7b	-0.06573006
51	0xbe11db2e	-0.14243767
52	0xbd27d904	-0.040978447
53	0xbce93767	-0.0284688
54	0xbd95a77c	-0.07307336
55	0x3e353af1	0.17698266
56	0x3d3c1003	0.045913707
57	0xbcc45b01	-0.023969175
58	0xbdaed8d7	-0.08537453
59	0xbe2dbdfd	-0.16967006
60	0x3e0acb47	0.13554107
61	0x3e4d50cb	0.20050351
62	0x3a5b8f77	0.0008375565
63	0xbd2cbebe	-0.042174093
64	0xbe633bae	-0.22190735
65	0x3e4587c7	0.19290076
66	0x3e15af8d	0.14617749
67	0x3d62aa33	0.055338096
68	0xbd35e7df	-0.044410583
69	0xbd994cff	-0.07485389
70	0x3e20125b	0.15632002
71	0x3e115ab2	0.14194754
72	0x3dc03573	0.09385195
73	0x3dc571e9	0.09640867
74	0x3d923ffb	0.071411096
75	0x3d5c36de	0.053763263
76	0x3ce55e51	0.027999075
77	0x3c0c5430	0.008564994
78	0xbde1a53b	-0.11017843
79	0xbb900ec8	-0.0043962933
80	0x3cbe2665	0.023211667
81	0xbd7e0aab	-0.062021893
82	0x3b74fafb	0.0037381041
83	0xbdb89ebf	-0.090146534
84	0x3bcbee0d	0.006223446
85	0xbd94632f	-0.0724548
86	0x3dd70680	0.10499287
87	0xbd53334d	-0.051562596
88	0xbde3656c	-0.11103329
89	0x3d8cb534	0.06870499
90	0x3c13d207	0.009022242
91	0xbdd4a395	-0.10382763
92	0xbdc37338	-0.095434606
93	0x3d5c6a02	0.053812034
94	0x3da28b05	0.07936672
95	0x3dd1ff6e	0.102537975
96	0xbda6a4fb	-0.08136936
97	0xbdb12241	-0.086491115
98	0xbdb4c468	-0.08826524
99	0xbc97dbf7	-0.018537505
100	0xbc3cf612	-0.011533277
101	0xbb97258d	-0.0046126307
102	0x3cb08abc	0.021550529
103	0xbddf4f93	-0.109038495
104	0x3cdcbc45	0.026945243
105	0x3d27066d	0.040777612
106	0xbd6ba439	-0.05752966
107	0x3dc62728	0.09675437
108	0x3d407ad7	0.04699215
109	0xbd42eb41	-0.047587637
110	0x3d9d7647	0.07688575
111	0x3db91a3f	0.09038209
112	0x39b8ba0d	0.00035233833
113	0xbc21c4a4	-0.009873543
114	0x3dc701bd	0.097171284
115	0x3cd16a69	0.025563436
116	0x3d78b536	0.06071969
117	0xbd7a2838	-0.06107351
118	0xbd8ce210	-0.068790555
119	0x3d825eb1	0.06365717
120	0x3cfd1446	0.030893456
121	0xbd50f526	-0.05101504
122	0xbdada2a4	-0.08478287
123	0xbdc4dcf9	-0.0961246
124	0x3d882d50	0.06649268
125	0xbd46544c	-0.048420236
126	0x3d21772a	0.039420284
127	0xbd251277	-0.040300813
128	0x3de1b33c	0.11020514
129	0xbc8ce1c5	-0.017197499
130	0x3cc4f082	0.024040464
131	0x3cae9886	0.021312963
132	0x3c70b2ba	0.014691049
133	0xbd6259b8	-0.055261344
134	0xbd99f4b6	-0.07517378
135	0xbd9aab1e	-0.07552169
136	0xbdb95e2f	-0.09051167
137	0xbb37ee1d	-0.002806551
138	0xbda7391b	-0.08165189
139	0xbd41161c	-0.047140226
140	0xbdebe781	-0.11518765
141	0x3d9e449f	0.07727932
142	0xbd9d2e2f	-0.076748244
143	0x3d2f6cb8	0.04282829
144	0xbd8bd342	-0.068274036
145	0xbde62014	-0.11236587
146	0x3dc67f88	0.096922934
147	0x3b6148c9	0.0034375659
148	0xbc34af44	-0.011028115
149	0x3b22724d	0.0024787367
150	0xbe635c51	-0.22203185
151	0x3cf9da46	0.030499589
152	0x3d5186d8	0.051153988
153	0x3e743944	0.2384997
154	0x3dfd28e9	0.123613186
155	0x3e79a5e0	0.24379683
156	0x3f0b4f38	0.54417753
157	0x3f083427	0.5320458
158	0x3f131ad9	0.5746284
159	0x3e897d6f	0.2685351
160	0x3eeb748a	0.4598735
161	0x3f3ce1bc	0.73781943
162	0x3f24d0b7	0.64380974
163	0x3f11fd4d	0.5702713
164	0x3e74b666	0.23897704
165	0xbe183067	-0.14862214
166	0xbebc976d	-0.3683428
167	0xbed4d7d5	-0.41570917
168	0xbebcadc7	-0.36851332
169	0xbe251f97	-0.16125332
170	0xbf065d81	-0.52486426
171	0xbf65ca7e	-0.89762104
172	0xbf3acfc3	-0.7297327
173	0xbf19c333	-0.60063475
174	0xbe713705	-0.23556145
175	0xbe2eb7d4	-0.17062312
176	0xba9b0ee6	-0.0011830002
177	0xbdb37b98	-0.08763808
178	0x3ccfca5e	0.02536505
179	0x3d9b5be8	0.07585889
180	0x3e792e50	0.24334073
181	0x3e6aee5a	0.22942486
182	0x3eddb4d8	0.43302035
183	0x3eb3821d	0.35060206
184	0xbc5d02dd	-0.013489452
185	0x3f0aff3e	0.5429572
186	0x3f00c943	0.503071
187	0x3efb32c7	0.49062178
188	0x3ed98128	0.4248135
189	0x3e751e21	0.23937275
190	0xbc19af04	-0.009380106
191	0xbec4dbf5	-0.38449064
192	0xbf1179f1	-0.5682669
193	0xbed2b02d	-0.41150036
194	0xbe5f3abf	-0.21799754
195	0xbec9a719	-0.39385298
196	0xbf3cd99e	-0.7376956
197	0xbf54133f	-0.8284187
198	0xbf12a9fd	-0.5729063
199	0xbdfcecb3	-0.12349834
200	0xbea6eaee	-0.32601112
201	0xbe24c8a4	-0.16092163
202	0xbe1ce934	-0.15323335
203	0xbde970e5	-0.11398486
204	0xbe0aa06f	-0.13537763
205	0xbd032b77	-0.032023873
206	0x3e22e8ed	0.15909167
207	0x3e46d88b	0.19418542
208	0x3df67609	0.12034232
209	0xbdb403f9	-0.0878982
210	0x3f087dac	0.5331676
211	0x3f145e38	0.57956266
212	0x3ef67b64	0.48141015
213	0x3ee5562d	0.4479231
214	0x3d79fe7a	0.061033703
215	0x3d51731e	0.051135175
216	0xbce4d8c3	-0.027935391
217	0xbea6aa6b	-0.32551894
218	0xbe822196	-0.2541625
219	0xbcde3f4a	-0.027129788
220	0xbe1599c8	-0.14609444
221	0xbe5bb3ba	-0.21455279
222	0xbecf87c8	-0.4053328
223	0xbe63de55	-0.22252782
224	0x3e5417c7	0.20712195
225	0xbd00a62f	-0.031408485
226	0xbbd2264e	-0.0064132577
227	0xbadf5cb8	-0.0017041182
228	0xbd6d6f29	-0.05796734
229	0xbd9adf7e	-0.07562159
230	0xbd34eda6	-0.04417195
231	0x3bd989fa	0.0066387625
232	0x3c995f0a	0.018722076
233	0xbddc373c	-0.107527226
234	0x3d3618ae	0.04445713
235	0x3d80af19	0.06283397
236	0xbde77a0e	-0.11302577
237	0x3dc694ab	0.09696325
238	0xbd5676d6	-0.052359425
239	0xbd84fb40	-0.06493235
240	0x3d7d129e	0.061785333
241	0x3cb0ff9f	0.021606265
242	0xbd8ab283	-0.0677233
243	0x3d989d76	0.07451908
244	0x3de0fdd9	0.109859176
245	0xbd9f5131	-0.07779158
246	0xbdb3d4fa	-0.087808564
247	0xbdbb5846	-0.09147696
248	0xbbad856d	-0.0052954466
249	0xbc8f9b2a	-0.017530043
250	0x3d9f9dc8	0.07793766
251	0xbdced65d	-0.1009948
252	0xbd5f99e8	-0.054590136
253	0xbd8068b2	-0.06269969
254	0x3d0b7d57	0.03405508
255	0x3d046ca0	0.032330155

0.bias f4 [6]
0	0xbe4a704f	-0.19769405
1	0xbdaee0b8	-0.085389555
2	0x3d01fce0	0.0317353
3	0x3c1db726	0.0096261855
4	0x3db62da2	0.088954225
5	0xbed9bb2c	-0.42525613

3.weight f4 [16, 6, 5, 5]
0	0xbd8506cc	-0.06495437
1	0x3d3d2fd5	0.046188194
2	0xbcccd6d6	-0.025004786
3	0xbd855020	-0.06509423
4	0x3d6e460f	0.05817228
5	0x3c8011f6	0.015633564
6	0xbd454443	-0.048160803
7	0xbd51da8a	-0.051233806
8	0x3d3bccfc	0.045849785
9	0x3c3a43da	0.011368716
10	0x3ba20d3d	0.004945426
11	0xbbc344b7	-0.005959119
12	0xbd2898b8	-0.04116127
13	0xbcc8033e	-0.024415608
14	0x3d5086b9	0.05090973
15	0x3d3d02ee	0.046145372
16	0xbda02d7a	-0.07821174
17	0x3d930432	0.071785346
18	0x3d2c7221	0.04210103
19	0xbcc49c7c	-0.024000399
20	0xbd928180	-0.071536064
21	0x3d3c3c8b	0.045956176
22	0xbd62f289	-0.05540708
23	0x3d9e842f	0.07740056
24	0x3c8d9a6d	0.01728555
25	0xbd80469a	-0.06263466
26	0xbd2f45ce	-0.04279118
27	0xbd6c4adc	-0.05768858
28	0xbd279039	-0.040909026
29	0x3bfd81ed	0.0077364356
30	0x3d1fe5ac	0.03903739
31	0xbd496563	-0.049168956
32	0x3c99942a	0.018747408
33	0xbd1092c5	-0.03529622
34	0xbd96808f	-0.07348739
35	0x3d01abbc	0.03165792
36	0x3d4c295f	0.049844142
37	0x3d4a0071	0.049316827
38	0x3b97031b	0.0046085245
39	0xbd907e86	-0.070553824
40	0x3d0fad34	0.03507729
41	0x3d9f1220	0.07767129
42	0xbd6a2d7d	-0.057172287
43	0xbd940d01	-0.07229043
44	0xbd00aea0	-0.031416535
45	0xbcebc397	-0.028779788
46	0xbda440d1	-0.08020175
47	0xbd915e91	-0.07098115
48	0x3c63c6d1	0.013902382
49	0xbd95c704	-0.0731335
50	0x3d86ee29	0.06588394
51	0x3c9c255b	0.019060781
52	0xbd0a93a8	-0.033832222
53	0xbd81e3af	-0.06342255
54	0x3d2e7bbe	0.04259848
55	0x3d0462c4	0.032320753
56	0x3c4058c9	0.011739918
57	0xbda3c04a	-0.079956606
58	0xbd29a3fe	-0.04141616
59	0x3cc22944	0.023701318
60	0xbd4a03f8	-0.04932019
61	0xbd99750a	-0.074930266
62	0x3c87f56f	0.016596524
63	0xbc30c6a5	-0.010789548
64	0x3d69b877	0.057060685
65	0xbd4795af	-0.048726734
66	0x3cd61b91	0.026136192
67	0x3b0d472a	0.002155731
68	0x3c0d907c	0.008640405
69	0x3ce03dd7	0.027373238
70	0xbc1d743b	-0.009610231
71	0xbcb7efa9	-0.022453146
72	0x3cb81b87	0.022474064
73	0xbd7c865f	-0.061651584
74	0x3d7417f0	0.05959314
75	0x3d971167	0.07376366
76	0x3d1dcc9d	0.038525213
77	0xbd1042ec	-0.03522007
78	0x3d522cd9	0.0513123
79	0xbda212ec	-0.07913765
80	0xbd62650d	-0.05527215
81	0x3d5a3625	0.053274292
82	0x3da6810b	0.08130082
83	0xbc4fc82d	-0.012682003
84	0x3c6d0efb	0.014468904
85	0xbd2dfbe8	-0.042476565
86	0xbd87fa38	-0.06639522
87	0xbd82f62c	-0.0639461
88	0xbc0d0d2d	-0.008609098
89	0x3cce8a3e	0.025212403
90	0xbd96a0cc	-0.07354888
91	0xbd828fcc	-0.06375083
92	0x3d8b93d9	0.06815309
93	0x3d30fdde	0.043210857
94	0xbd2aa717	-0.041663256
95	0xbb89baf6	-0.0042031957
96	0x3b89626b	0.0041926405
97	0xbc9f0d19	-0.019415425
98	0x3cac3994	0.02102355
99	0xbd094ba0	-0.033519387
100	0xbdae169b	-0.085004054
101	0x3c7a0ac6	0.015261358
102	0x3d9fffe2	0.07812478
103	0xbd4d71d4	-0.050157383
104	0xbd677022	-0.056503423
105	0xbd6ba75b	-0.05753265
106	0xbd682e96	-0.056685053
107	0xbd961664	-0.073284894
108	0xbd64b7ff	-0.055839535
109	0xbcb6ee55	-0.022330442
110	0xbd902d1b	-0.07039853
111	0xbd11eaca	-0.035624303
112	0xbd9167e9	-0.070998974
113	0x3d8c8125	0.0686057
114	0xbc3d2cdc	-0.01154634
115	0x3ba60910	0.0050669983
116	0x3d94252f	0.07233655
117	0xbd50f15b	-0.051011425
118	0xbd0cc881	-0.034370903
119	0x3d825de1	0.06365562
120	0xbd9cb757	-0.07652157
121	0x3cdda491	0.02705601
122	0x3d359b7e	0.044337742
123	0xbd9f5494	-0.07779804
124	0x3d594802	0.053047188
125	0x3cc9d2f0	0.024636716
126	0xbd86dba9	-0.065848656
127	0x3d05a05e	0.03262364
128	0xbd0c0acb	-0.03418998
129	0x3c5c76ce	0.01345606
130	0x3ccbd95c	0.024883918
131	0x3d0c8991	0.03431088
132	0xbca6190e	-0.020275619
133	0xb9ffeb5f	-0.00048812755
134	0x3c9bdb4d	0.01902547
135	0xbd807388	-0.06272036
136	0x3d77a369	0.060458574
137	0x3ce369c9	0.027760403
138	0xbb3be01b	-0.0028667513
139	0xbd8783dd	-0.06616948
140	0xbd40fce5	-0.04711618
141	0xbd6df0c0	-0.058090925
142	0x3d9a2544	0.07526639
143	0xbce3b823	-0.027797764
144	0xbd44cce1	-0.04804695
145	0xbd8934f4	-0.06699553
146	0xbd7dd084	-0.061966434
147	0x3da3ecf0	0.080041766
148	0xbd7f475f	-0.062323924
149	0xbd2edb4f	-0.042689618
150	0x3bfc63e0	0.0077023357
151	0xba496bb8	-0.0007683593
152	0xbcb6c2a9	-0.022309618
153	0xbd288037	-0.0411379
154	0x3d8db855	0.06919924
155	0xbe4e3cae	-0.20140335
156	0xbd1fc488	-0.039005786
157	0xbe5f865d	-0.218286
158	0xbe4f22e3	-0.20228152
159	0xbd290362	-0.04126299
160	0xbe24300f	-0.16033958
161	0x3b3c9a8f	0.0028778648
162	0xbd208903	-0.039193165
163	0xbdf17b35	-0.11791078
164	0xbc42ac9d	-0.0118819745
165	0xbe435227	-0.19074307
166	0xbdca0e3b	-0.098659955
167	0xbe1d9279	-0.15387906
168	0xbe2d4fa9	-0.16924919
169	0xbe02a36f	-0.12757657
170	0xbe0908c7	-0.13382255
171	0xbdae214e	-0.08502446
172	0xbda1cca5	-0.07900361
173	0xb9242637	-0.00015654495
174	0xbb7efcc5	-0.0038907987
175	0x3cf2d255	0.02964131
176	0x3d5dd587	0.054158714
177	0x3da3908a	0.07986553
178	0x3d227398	0.03966102
179	0x3d5663b7	0.05234119
180	0xbcf4772f	-0.029841987
181	0xbb958026	-0.0045623956
182	0x3c1b8331	0.009491728
183	0xbd9a557f	-0.07535838
184	0xbcbb4361	-0.022859277
185	0xbc6943bd	-0.0142373415
186	0xbd02c5c3	-0.03192688
187	0xbcd3247e	-0.025774237
188	0x3d1bba63	0.03801955
189	0x3d1e480a	0.03864292
190	0xbd0ae08a	-0.033905543
191	0xbd8c3d58	-0.06847638
192	0x3ce4cad2	0.027928744
193	0xbd34b6ac	-0.044119522
194	0x3d0ed37c	0.034869656
195	0xbd7cf901	-0.061760906
196	0xbd462542	-0.048375376
197	0xbd4c1efe	-0.049834244
198	0xbc86e776	-0.016467791
199	0x3d8ab041	0.06771899
200	0xbd1f60b3	-0.03891058
201	0xbd2af6cd	-0.041739274
202	0x3de8228b	0.113347135
203	0x3d83209d	0.06402705
204	0xbd21724c	-0.039415643
205	0xbd340b23	-0.043955933
206	0xbdd7100f	-0.1050111
207	0x3c6a03c3	0.014283123
208	0x3debf2b3	0.115209006
209	0xbcfb99fc	-0.030713074
210	0xbcee050d	-0.029055143
211	0xbe20b8d0	-0.156955
212	0x3cec544c	0.02884879
213	0x3d0a5898	0.033775896
214	0x3d07e123	0.03317369
215	0x3d136294	0.035982683
216	0xbd34d056	-0.044143997
217	0xbde13117	-0.10995691
218	0x3c039268	0.008030511
219	0xbd6e63aa	-0.058200516
220	0xbd45b551	-0.04826862
221	0xbe44a991	-0.1920531
222	0xbe98a8e8	-0.29816365
223	0xbe1497de	-0.14511058
224	0x3d752edf	0.059859153
225	0x3c88be33	0.016692257
226	0x3b3e2fdb	0.0029020223
227	0x3c3847b8	0.011247568
228	0x3c87176f	0.016490666
229	0xbd92cde1	-0.071681745
230	0x3d7947bf	0.060859438
231	0x3d8772cc	0.06613693
232	0x3d5afe6a	0.053465284
233	0x3da65e3f	0.08123445
234	0xbda103bc	-0.078620404
235	0xbd45e70a	-0.04831604
236	0xbda1ca2b	-0.078998886
237	0xbd9eae6c	-0.07748112
238	0xbd8fab82	-0.070151344
239	0x3cb12973	0.02162621
240	0xbd4f49b4	-0.0506074
241	0x3c7ab156	0.015301069
242	0xbd079aac	-0.03310649
243	0x3d7e6c53	0.062115025
244	0xbd538e81	-0.051649574
245	0xbd0371ee	-0.032091074
246	0xbd1b55ce	-0.037923627
247	0xbd829743	-0.06376507
248	0x3d97aef5	0.07406417
249	0x3da685ad	0.081309654
250	0x3dee1ad0	0.11626208
251	0x3e0d94b5	0.13826258
252	0x39dc1b28	0.00041981903
253	0xbc1e6feb	-0.009670238
254	0xbd210ca0	-0.03931868
255	0x3e3e1f2a	0.18566576

3.bias f4 [16]
0	0x3d57ccb6	0.052685462
1	0x3ea05bae	0.31319946
2	0xbe9a77e7	-0.30169603
3	0x3d9d0cf5	0.07668487
4	0x3e574f5d	0.21026368
5	0x3dd629ce	0.10457192
6	0x3d5039f3	0.050836515
7	0x3c1f7ab3	0.009733844
8	0x3d06be53	0.03289635
9	0x3ea8f794	0.33001387
10	0xbe3d0227	-0.18457852
11	0x3d761bc5	0.060085077
12	0xbdad23d9	-0.08454103
13	0xbe172d95	-0.14763482
14	0xbe919452	-0.28433472
15	0xbd924e3d	-0.07143829

7.weight f4 [120, 400]
0	0x3c95f8da	0.018307138
1	0x3a04a038	0.0005059275
2	0xbb27ad9c	-0.0025585657
3	0x3d3e86d8	0.046515316
4	0x3cdad8b7	0.026714666
5	0x3c21e133	0.009880352
6	0xbcf57321	-0.029962124
7	0x3d25f483	0.040516388
8	0xbc3314cc	-0.010930251
9	0xbc975fb3	-0.01847825
10	0x3d0ec67d	0.034857262
11	0x3b20b5cc	0.0024522422
12	0xbd26d5e5	-0.04073133
13	0x3d44cffc	0.04804991
14	0x3badfd80	0.0053097606
15	0xb98d6d4b	-0.00026975045
16	0x3cfda80c	0.03096392
17	0x3d1527d3	0.036414932
18	0x3d20d796	0.0392681
19	0x3d424901	0.047432903
20	0x3c71a2b8	0.014748268
21	0xbcf43b5a	-0.029813457
22	0xbb4a223e	-0.0030843164
23	0xbd01a396	-0.03165015
24	0x3c9b63fd	0.018968577
25	0xbc23c57b	-0.0099958135
26	0xbd00cdc8	-0.03144625
27	0xbac16de6	-0.0014757484
28	0xbd4d8588	-0.050176173
29	0xbc5cbca3	-0.013472709
30	0x3c96ee44	0.01842416
31	0xbcfbc371	-0.030732842
32	0x3cc571b1	0.024102064
33	0xbd4c8e75	-0.049940545
34	0xbce322d5	-0.02772657
35	0x3c82c83e	0.015964624
36	0x3d3ed1af	0.04658669
37	0x3c417313	0.011807221
38	0xbdae85bb	-0.08521601
39	0xbc7ec0dc	-0.015548911
40	0x3c91e005	0.017807016
41	0xbcee5132	-0.029091451
42	0xbdc20532	-0.09473647
43	0xbc286c23	-0.010279688
44	0xbd063a64	-0.03277053
45	0xbd19d7af	-0.037559208
46	0x3cddee1f	0.027091084
47	0xbda8e828	-0.08247405
48	0xbd48cfff	-0.049026486
49	0xbddd1b1f	-0.107961886
50	0x3dd99e76	0.10625927
51	0xbd07d69d	-0.033163656
52	0xbd54f547	-0.051991727
53	0xbd2e5f86	-0.042571567
54	0xbd142913	-0.036171984
55	0xbcca55d2	-0.024699125
56	0x3d8ebb58	0.06969327
57	0x3d011825	0.031517167
58	0xbc1d52eb	-0.009602289
59	0x3d734959	0.05939612
60	0xbd2460fd	-0.040131558
61	0xbcd033c3	-0.025415307
62	0xbd082a0f	-0.033243235
63	0x3d8fb1c3	0.07016327
64	0x3c5ef3c9	0.013607928
65	0x3d459e7b	0.048246842
66	0x3ba730a7	0.0051022354
67	0x3b0ead34	0.0021770718
68	0x3b9f4455	0.0048604407
69	0x3d006211	0.031343523
70	0x3cf4ecf7	0.02989815
71	0x3d42e51e	0.047581784
72	0x3d1c4cae	0.038159065
73	0xbd1533d4	-0.03642638
74	0xbb976c37	-0.0046210545
75	0xbd4bed71	-0.04978699
76	0xbd5cc2d2	-0.053896733
77	0xbbeade4c	-0.007167613
78	0x3d8e191e	0.069383845
79	0xbd550c4e	-0.052013688
80	0x3caf36ae	0.021388378
81	0x3ce6287b	0.028095474
82	0xbc6fa8dd	-0.0146276625
83	0x3c69cb59	0.014269673
84	0x3d5ac874	0.053413823
85	0x3ca57b0b	0.020200273
86	0x3c87e5da	0.016589094
87	0xbd854f42	-0.06509258
88	0xbd386167	-0.045014765
89	0x3d07672d	0.03305738
90	0xbbe5d113	-0.007013449
91	0x3d880672	0.06641854
92	0x3cde28cd	0.027119065
93	0x3b26faff	0.0025479195
94	0xb9fb234a	-0.00047900743
95	0x3c15530b	0.009114037
96	0xbd0107ea	-0.031501688
97	0x3bbcd642	0.005762846
98	0xbd80904f	-0.06277525
99	0xbd6b9ed0	-0.057524502
100	0x3d81c83a	0.06337018
101	0x3cbb627a	0.022874106
102	0x3c8ca3f7	0.017168028
103	0xbd3b4ed4	-0.045729473
104	0xbd76d0e1	-0.060257796
105	0x3bafdd89	0.005366985
106	0x3caa696a	0.020802218
107	0xbbef991e	-0.007311954
108	0x3d65197e	0.055932514
109	0x3dba5fd4	0.09100309
110	0x3dcd4c08	0.100242674
111	0xbd4b50ea	-0.049637713
112	0xbc89c106	-0.016815674
113	0x3cc8306f	0.024437157
114	0x3c81c4b7	0.015840871
115	0x3d8b6daf	0.0680803
116	0x3d363a7e	0.044489376
117	0x3cb92b46	0.022603642
118	0x3c820cdb	0.01587527
119	0xbb731493	-0.003709112
120	0x3d853b07	0.06505399
121	0x3c8b429e	0.016999539
122	0x3d1f7528	0.03893009
123	0x3d3cccf2	0.04609389
124	0xbd3936a7	-0.045218136
125	0xbc3363a2	-0.010949047
126	0x3cae56b4	0.021281578
127	0x3bd58b2f	0.006516836
128	0x3c7ddbb3	0.015494275
129	0x3c954d18	0.018225238
130	0x3af28b75	0.0018504696
131	0x39e1a751	0.00043040005
132	0xbd03a344	-0.032138124
133	0x3d3be675	0.045874078
134	0x3b5dab8f	0.003382418
135	0xbcd72485	-0.026262531
136	0x3d332e0f	0.043745097
137	0xba10a458	-0.0005517653
138	0xbd18ae2a	-0.03727547
139	0xbd326d7a	-0.043561436
140	0xbcb023fd	-0.021501536
141	0x3adbd1f0	0.001677094
142	0x3d0bcb8d	0.034129668
143	0xbcef4c81	-0.029211285
144	0x3cd5525c	0.026040249
145	0x3c01c2d2	0.007919984
146	0xbc86d6c6	-0.016459834
147	0x3d2b319a	0.04179535
148	0xbca2c8a7	-0.01987107
149	0xbbf21429	-0.007387657
150	0x3d8e4757	0.06947201
151	0x3d84849b	0.06470605
152	0x3cdeee80	0.027213335
153	0xbc6ae812	-0.014337556
154	0xbe156470	-0.14589095
155	0x3b749bdf	0.0037324352
156	0x3db9f42c	0.09079775
157	0x3d5465a1	0.051854733
158	0xbd5631f8	-0.052293748
159	0x3d0a831a	0.033816434
160	0xbd4ec463	-0.050480258
161	0xbc901abb	-0.017590871
162	0xbc3ed6cb	-0.01164789
163	0xbcc76e04	-0.024344452
164	0x3d26551a	0.040608503
165	0x3d3cd1be	0.046098463
166	0x3d08a7a9	0.03336302
167	0x3c5ca316	0.013466617
168	0x3d44dace	0.04806023
169	0x3daf4a7f	0.08559131
170	0x3d90f0af	0.07077157
171	0xbd1ea998	-0.038735956
172	0xbc53472f	-0.012895389
173	0xbd410e64	-0.047132865
174	0x3d9f2077	0.07769864
175	0xbd278466	-0.04089775
176	0x3b96bb51	0.0045999666
177	0x3d1d7f59	0.038451526
178	0xbd097cfb	-0.033566456
179	0x3d1e9174	0.038712934
180	0xbce186bb	-0.027530065
181	0xbb824098	-0.0039749853
182	0xbd309fab	-0.04312102
183	0x3d268cd9	0.040661667
184	0xbd26baab	-0.040705364
185	0x3d450ea8	0.04810968
186	0xbd118f34	-0.03553696
187	0x3ce204dc	0.027590208
188	0xbbd1b82d	-0.0064001293
189	0xbd4671a7	-0.04844823
190	0xbca55ccc	-0.02018585
191	0xbd1937f5	-0.03740688
192	0xbcff06b5	-0.031131128
193	0x3d44487a	0.04792068
194	0xbd3e52b1	-0.04646558
195	0xbcb98dcc	-0.022650622
196	0xba5ccdbd	-0.00084229914
197	0x3c461cf9	0.012091869
198	0x3bb3e2a0	0.0054896623
199	0xbcd3938f	-0.025827197
200	0x3d410e38	0.0471327
201	0xbcfdeb7d	-0.030996079
202	0x3c96217b	0.018326512
203	0xbd20d63a	-0.039266802
204	0xbd3a0012	-0.045410223
205	0x3c6f0112	0.0145876575
206	0xba8e2062	-0.0010843391
207	0x3c967dff	0.018370626
208	0xbbd0965a	-0.0063655796
209	0xbce7325a	-0.028222252
210	0x3c639c12	0.0138921905
211	0xbd5d3f55	-0.054015476
212	0xbc2dcea2	-0.010608347
213	0xbc901131	-0.017586323
214	0xbca30fcb	-0.019904992
215	0x3c809095	0.015693942
216	0xbd00e047	-0.031463888
217	0xbc7f0331	-0.015564726
218	0xbdca1b40	-0.09868479
219	0x3c7a8677	0.015290848
220	0x3a04ef21	0.00050710334
221	0x3c9968ae	0.018726673
222	0xbd4dd57d	-0.050252426
223	0xbcb26fba	-0.021781791
224	0x3d22be68	0.039732367
225	0xbc693a7f	-0.014235138
226	0x3b2da017	0.0026493126
227	0x3c96938e	0.018380906
228	0x3cc879a3	0.024472063
229	0x3dd8ff00	0.105955124
230	0xbd512d19	-0.0510684
231	0x3d651189	0.055924926
232	0xbb1498ab	-0.0022674005
233	0xbb21cba8	-0.002468804
234	0xbdba768d	-0.09104643
235	0xbdc7fb33	-0.09764709
236	0xbd6b77e1	-0.057487372
237	0xbdef9f9f	-0.11700367
238	0xbe1706ce	-0.1474869
239	0xbc1ad93e	-0.009451209
240	0x3d2288af	0.039681133
241	0x3d481bec	0.048854753
242	0xbc2ffeb5	-0.010741879
243	0x3cfd03a1	0.03088552
244	0xbd63999f	-0.055566426
245	0x3c958a2c	0.018254362
246	0x3dd168bd	0.10225055
247	0x3c667686	0.014066344
248	0x3d39cb73	0.04536004
249	0x3c596a07	0.013269908
250	0xbddedae2	-0.10881592
251	0x3d9b71c5	0.07590059
252	0x3d425c53	0.04745133
253	0x3d78cdd5	0.06074317
254	0xbd13b212	-0.036058493
255	0xbd0b0407	-0.033939388

7.bias f4 [120]
0	0xbcdf5b05	-0.027265081
1	0x3d7f8eb9	0.06239197
2	0x3c17e1bc	0.009270128
3	0x3d14505f	0.03620946
4	0xbd76e1b7	-0.060273852
5	0xbd501bc1	-0.05080772
6	0xbd5cb6e9	-0.053885374
7	0xbd353c69	-0.044247065
8	0x3c534e49	0.012897083
9	0xbcab765e	-0.020930465
10	0x3cde5297	0.027138991
11	0x3d25a5a8	0.040441185
12	0x3ddc279f	0.107497446
13	0x3d758dc6	0.05994966
14	0x3c894040	0.01675427
15	0xbd494969	-0.049142275
16	0x3d649534	0.055806354
17	0xbde7d55b	-0.11319991
18	0xbb8583b7	-0.0040745395
19	0x3d25bc17	0.04046258
20	0x3db55eb1	0.088559516
21	0x3dc3730f	0.0954343
22	0x3e317edf	0.17333554
23	0xbc8603e5	-0.016359279
24	0xbd437073	-0.04771466
25	0x3c9ae4dc	0.018907957
26	0xbd20bf85	-0.039245147
27	0x3c64c6a2	0.013963373
28	0x3d9c23e3	0.07624032
29	0x3ced442b	0.02896317
30	0xbcaf5080	-0.02140069
31	0xbd88e39c	-0.06684038
32	0x3d947543	0.072489284
33	0xbbbfc22d	-0.005852005
34	0xbd4d4e61	-0.050123576
35	0xbd1cbf5d	-0.038268436
36	0x3cb8e169	0.022568421
37	0x3dab9866	0.08378677
38	0x3da1cb86	0.07900147
39	0xbcbd3bd6	-0.023099821
40	0xbc5cb7b8	-0.013471536
41	0xbd3c7add	-0.04601561
42	0xbc9fa9d2	-0.019490156
43	0xbcde3d5a	-0.027128864
44	0x3bc9bb2a	0.006156345
45	0xbce9350e	-0.028467681
46	0x3c041fa0	0.008064181
47	0x3d350ac7	0.04419973
48	0xbda985b5	-0.08277456
49	0xbd463b38	-0.04839632
50	0xbd40023a	-0.046877123
51	0x3de42889	0.11140544
52	0xbd878b12	-0.066183224
53	0x3cc21769	0.023692803
54	0xbd2a61c8	-0.041597158
55	0x3d0f8199	0.035035703
56	0xbcfe7e6a	-0.031066138
57	0xbc4b7c6d	-0.012419802
58	0x3e3fd8c7	0.18735038
59	0x3d79376f	0.06084388
60	0xbd8512ba	-0.064977124
61	0x3cb12b69	0.021627145
62	0xbc84566d	-0.016154492
63	0x3ddd4529	0.10804207
64	0xbddc480b	-0.107559286
65	0xbd2033f4	-0.039112046
66	0x3cd6c68c	0.026217721
67	0x3c31fea7	0.0108639365
68	0x3c895f8e	0.016769197
69	0x3c5f8c0b	0.013644229
70	0x3d196da8	0.037458092
71	0x3d9438e0	0.072374105
72	0xbd46ddfc	-0.048551545
73	0x3e024e5b	0.12725203
74	0xbd34c4e4	-0.044133082
75	0xbc981fba	-0.018569816
76	0x3ca1c649	0.01974787
77	0xbd3f9d6b	-0.046780985
78	0x3aceb974	0.0015771822
79	0x3d036ef1	0.032088224
80	0x3df6d1d7	0.120517425
81	0xbc11635f	-0.00887379
82	0x3baf0959	0.0053416905
83	0x393eaeac	0.00018184882
84	0x3c49c7d0	0.012315705
85	0x3d4a809c	0.049439058
86	0x3d605c70	0.054775655
87	0xbd3154a2	-0.043293603
88	0x3dc87aae	0.09789024
89	0xbdb05a6a	-0.08610995
90	0xbd2a4e5b	-0.04157863
91	0x3e0845d0	0.13307881
92	0x3d8b0683	0.067883514
93	0x3d97ecb0	0.074181914
94	0x3c86e55e	0.016466793
95	0x3c7294e0	0.014806002
96	0xbe1bdc20	-0.1522069
97	0xbd032e56	-0.03202661
98	0xbdc1fd0b	-0.09472092
99	0x3d81a5aa	0.06330426
100	0xbdb33d72	-0.08751954
101	0x3bb76596	0.005596827
102	0xbd2793d7	-0.040912475
103	0xbd5d96fb	-0.054099064
104	0xbd03454d	-0.032048512
105	0x3d4532d3	0.048144173
106	0x3b4e015f	0.0031433923
107	0xbca2c2d8	-0.0198683
108	0x3d6aa55a	0.057286598
109	0xbab76a8d	-0.0013993547
110	0x3ed094a0	0.40738392
111	0xbc7ac96b	-0.015306811
112	0x3c73c827	0.014879263
113	0x3d235006	0.03987124
114	0xbc060288	-0.008179314
115	0xbcae2026	-0.021255564
116	0x3bc978bd	0.0061484263
117	0x3df0d6f9	0.11759753
118	0x3e0e5ee4	0.13903385
119	0xbda7379b	-0.08164903

9.weight f4 [84, 120]
0	0xbd60d85b	-0.054893833
1	0xbe0e4dca	-0.13896862
2	0xbd6551ae	-0.0559861
3	0x3d90efb2	0.07076968
4	0xbd3d89d2	-0.046274014
5	0xbd6d9dd3	-0.05801184
6	0xbd9202cd	-0.071294405
7	0xbca32fef	-0.019920317
8	0xbd509f36	-0.050933085
9	0x3e1d4675	0.15358908
10	0x3da03ce0	0.07824111
11	0x3dbc0b4a	0.09181841
12	0x3cf099d5	0.029370228
13	0x3ceb82a9	0.028748827
14	0xbcbaf25f	-0.02282065
15	0xbce5dfc9	-0.02806081
16	0x3dbc3350	0.091894746
17	0xbcf57932	-0.029965017
18	0x3d9a0cfd	0.075220086
19	0xbc20b845	-0.009809558
20	0x3d492481	0.04910708
21	0x3de2f68b	0.110821806
22	0x3da120a5	0.078675546
23	0xbd2b8a64	-0.041880026
24	0x3d1565b3	0.03647394
25	0xbcc05066	-0.023475837
26	0x3da25cc3	0.07927849
27	0xbda5b792	-0.08091654
28	0xbce5252c	-0.027971826
29	0xbd333aca	-0.043757237
30	0x3c2dcc87	0.010607845
31	0x3c802e41	0.015647056
32	0x3bf3cd5f	0.0074402536
33	0xbdaa3760	-0.08311343
34	0xbd907b28	-0.0705474
35	0x3dac7954	0.08421579
36	0xbd6b4b8c	-0.057445094
37	0xbcb328c0	-0.021870017
38	0x3d9f2d92	0.07772364
39	0xbd8a5093	-0.067536496
40	0x3e06310e	0.1310465
41	0xbc334f59	-0.010944211
42	0x3b8e84ef	0.004349343
43	0xbc91eac6	-0.017812144
44	0xbdacf077	-0.084443025
45	0xbd89fbea	-0.06737502
46	0x3db382d8	0.08765191
47	0xbdb6eeba	-0.08932252
48	0x3da8504f	0.08218443
49	0x3d19bfd0	0.037536442
50	0x3cae1d47	0.021254195
51	0xbcd2e95a	-0.025746036
52	0x3d8c4490	0.06849015
53	0xbdf1b5cc	-0.11802253
54	0x3d13d1ec	0.03608887
55	0x3d401440	0.046894312
56	0xbc418e29	-0.011813679
57	0xbc59ba79	-0.013289087
58	0xbd5cb40f	-0.053882655
59	0xbd5c97cb	-0.0538557
60	0x3d1258b2	0.035729118
61	0xbe05a207	-0.1305009
62	0xbd7830a8	-0.060593277
63	0xbd573fad	-0.05255096
64	0xbc1283a6	-0.00894252
65	0xbdc5db6a	-0.096609905
66	0x3cc8d403	0.024515158
67	0xbca9e015	-0.020736733
68	0x3c48cb9c	0.0122555755
69	0x3db06436	0.08612864
70	0x3d90a65c	0.070629805
71	0xbd351881	-0.044212822
72	0xbbe94eb1	-0.0071199764
73	0x3b0cf2ac	0.0021506948
74	0x3d1a0a20	0.037607312
75	0xbd34372f	-0.04399794
76	0xbd1bdb43	-0.0380509
77	0xbd8abd06	-0.067743346
78	0xbb0db537	-0.0021622905
79	0x3c465092	0.01210417
80	0xbc7e9771	-0.015539036
81	0xbd8d26cf	-0.06892168
82	0x3b92bd5b	0.0044781393
83	0xbda53325	-0.08066396
84	0xbc991305	-0.018685827
85	0xbd6c2b6a	-0.05765859
86	0xbd299769	-0.04140416
87	0x3d431529	0.0476276
88	0x3d9ade62	0.075619474
89	0x3dea931f	0.11453842
90	0x3cd59cf4	0.026075818
91	0x3dbd69d4	0.09248701
92	0xbc183982	-0.009291055
93	0xbc8e6d91	-0.01738623
94	0xbcc6803a	-0.024231065
95	0x3daf8d6a	0.085718945
96	0xbdeb1248	-0.11478096
97	0x3d001980	0.03127432
98	0x3ddfb539	0.10923237
99	0xbc763e57	-0.015029511
100	0x3db39b7e	0.08769892
101	0x3e08ee45	0.13372143
102	0x3cdcdea5	0.026961634
103	0xbd873ee4	-0.06603792
104	0x3df240e1	0.11828781
105	0xbc797aee	-0.015227063
106	0xbbf6a6e7	-0.0075272205
107	0x3db9671c	0.0905287
108	0x3c9ca14b	0.01911988
109	0xbdbd8c20	-0.09255242
110	0x3e051656	0.12996802
111	0x3d90abb6	0.07064001
112	0xbd6d4eca	-0.057936467
113	0xbdf1420f	-0.11780178
114	0xbd0f643f	-0.03500771
115	0x3c797691	0.015226022
116	0x3d63069b	0.05542622
117	0x3baf9c9a	0.0053592445
118	0x3c374e48	0.011188097
119	0x3d69f72b	0.057120483
120	0x3dc00f39	0.093779035
121	0xbd5e08c2	-0.05420757
122	0xbc1191fc	-0.008884903
123	0xbd1a2063	-0.037628543
124	0x3c9039b7	0.017605646
125	0x3b8461b7	0.004039969
126	0xbd8a1f1c	-0.06744215
127	0x3dd1dfaa	0.10247739
128	0x3c224d54	0.009906132
129	0x3d2c2f8d	0.042037535
130	0xbda44b58	-0.08022183
131	0x3ce0e0b5	0.027450899
132	0xbe06e18f	-0.13171981
133	0x3d3687e9	0.044563208
134	0xbd83b341	-0.06430674
135	0x3d389985	0.045068283
136	0xbe06e40f	-0.13172935
137	0xbd4c4cc1	-0.049877886
138	0x3dc02240	0.09381533
139	0xbcbbb5fe	-0.02291393
140	0xbc51c94d	-0.0128043415
141	0x3dd1a27b	0.10236069
142	0x3d54070b	0.05176453
143	0xbc0932e4	-0.00837395
144	0xbd18500b	-0.03718571
145	0x3d3af676	0.0456452
146	0xbdc0b177	-0.09408849
147	0xbda7dc00	-0.081962585
148	0xbd1a1e56	-0.037626587
149	0xbb0f3ea1	-0.0021857398
150	0x3d631b4a	0.055445947
151	0xbdd8e17f	-0.10589885
152	0xbd489e14	-0.04897888
153	0x3d59cbea	0.053172983
154	0xbe066a6a	-0.13126531
155	0xbdaf99ff	-0.08574294
156	0x3de04fe7	0.1095274
157	0xbd83b2fa	-0.064306214
158	0x3b2e45f5	0.002659199
159	0xbdcfdf55	-0.10150019
160	0x3cda835a	0.026673961
161	0x3d8f346b	0.0699242
162	0x3dca7938	0.09886402
163	0x3d49a5be	0.04923033
164	0xbd81b9d1	-0.0633427
165	0xbcda1708	-0.02662231
166	0xbd67b0c5	-0.056565065
167	0x3d1b5090	0.037918627
168	0xbd770903	-0.06031133
169	0xbcdf74df	-0.027277408
170	0x3daf606a	0.085633114
171	0x3ccb6e05	0.024832735
172	0x3c97775e	0.018489536
173	0x3d967499	0.07346458
174	0xbd8cc3cd	-0.068732835
175	0x3db9bf22	0.09069659
176	0x3c068cf8	0.0082123205
177	0xbd604428	-0.0547525
178	0xbc0d6479	-0.008629912
179	0x3d8dca90	0.06923401
180	0x3cdc4edc	0.026893072
181	0xbd20987f	-0.03920793
182	0xbd7da7fe	-0.061927788
183	0xbdbe9845	-0.09306387
184	0xbd357d94	-0.044309214
185	0xbde5387e	-0.11192416
186	0xbd9dd39e	-0.077063784
187	0x3b404096	0.0029335371
188	0xbd19bcb2	-0.03753347
189	0xbc242701	-0.010019065
190	0x3e22d8f4	0.15903074
191	0x3c6611c4	0.014042322
192	0xbdfc77cf	-0.12327539
193	0x3e25eb8f	0.1620314
194	0x3df58924	0.11989048
195	0x3c94edf2	0.018179867
196	0xbcc0fd85	-0.023558388
197	0x3da9f4aa	0.08298619
198	0x3db53ce1	0.08849502
199	0x3db3bfe4	0.087768346
200	0xbd2f1908	-0.04274848
201	0xbd155ad3	-0.03646357
202	0x3d17cdab	0.037061375
203	0x3dd46480	0.10370731
204	0x3d1e5e3b	0.038664084
205	0xbd8d3e85	-0.0689669
206	0x3d9ec060	0.07751536
207	0xbcb8a6f0	-0.02254054
208	0x3db969b2	0.09053363
209	0xbcd0ac3a	-0.025472749
210	0x3d39c4d5	0.04535373
211	0xbc59e28f	-0.013298645
212	0x3d607e01	0.054807667
213	0x3c478aa2	0.012179049
214	0xbd0c1126	-0.03419604
215	0x3cd647a1	0.026157202
216	0xbdbc838a	-0.092047766
217	0x3cd03dd7	0.025420113
218	0xbdbd3650	-0.09238875
219	0x3d816783	0.063185714
220	0xbd8b97fd	-0.06816099
221	0xbdd2774b	-0.102766596
222	0xbcfb00b5	-0.030639986
223	0xbd901bf0	-0.07036579
224	0x3cf52130	0.029923052
225	0x3dbbc475	0.091683306
226	0xbd0f81f4	-0.035036042
227	0x3dc8a113	0.097963475
228	0x3c89b067	0.016807748
229	0xbc61d92f	-0.013784691
230	0x3c991a8e	0.01868942
231	0xbe1e9fa9	-0.15490593
232	0x3c4a59db	0.012350525
233	0xbd98f9af	-0.07469498
234	0xbd9ad676	-0.075604364
235	0x3dab96cc	0.083783716
236	0xbda8473c	-0.08216712
237	0x3d94c111	0.07263387
238	0x3e04ed0d	0.12981053
239	0x3d93f07c	0.07223603
240	0xbe21c8eb	-0.157993
241	0xbc8d181c	-0.01722341
242	0x3c38c8a6	0.011278307
243	0xbcc80c58	-0.024419948
244	0x3abacc89	0.001425163
245	0xbd8e8e9b	-0.069607936
246	0x3ca60b63	0.020269101
247	0x3da6d7a1	0.08146597
248	0xbdca1868	-0.098679364
249	0x3d41f14b	0.047349256
250	0x3ceb9cb8	0.028761253
251	0x3dcfad1c	0.1014044
252	0xbd87a300	-0.06622887
253	0x3d335532	0.04378242
254	0xbbe147ec	-0.006875029
255	0x3b51c7ef	0.003201004

9.bias f4 [84]
0	0x3e101d48	0.1407367
1	0xbd7b9d97	-0.061429586
2	0xbd6aa705	-0.05728819
3	0xbcbdb570	-0.023157805
4	0xbd7ae206	-0.06125071
5	0xbd053bd1	-0.03252775
6	0xbca659ae	-0.020306434
7	0x3c0eb4c2	0.008710088
8	0xbd065ef9	-0.032805417
9	0x3d0c7bc7	0.03429773
10	0xbe1ee158	-0.1551565
11	0x3e1c2c4b	0.15251271
12	0xbd692db7	-0.056928363
13	0x3e0b2f6e	0.13592312
14	0xbd5e2802	-0.054237373
15	0xb8261673	-3.959839e-05
16	0xbb8e0f49	-0.004335318
17	0xbc9fda42	-0.019513253
18	0x3e038aa0	0.1284585
19	0xbdaa8e58	-0.08327931
20	0x3dc017a4	0.09379509
21	0xbd306efa	-0.043074585
22	0xbe55b94b	-0.20871465
23	0xbcbb47e2	-0.022861425
24	0x3e775c6b	0.24156348
25	0x3e99f959	0.3007305
26	0xbd1cd440	-0.038288355
27	0xbc53f13a	-0.012935931
28	0xbc4b9dee	-0.01242779
29	0x3df414b3	0.119180106
30	0xbd670460	-0.056400657
31	0x3e80cc37	0.25155804
32	0x3e31b567	0.17354356
33	0x3e61f953	0.22067766
34	0xbdce4cf8	-0.100732744
35	0x3dea8f96	0.11453168
36	0x3a4c42a5	0.0007791913
37	0xbc9ffa51	-0.01952854
38	0x3d39e283	0.045382034
39	0x3d4516cc	0.048117444
40	0xbd1cfd10	-0.038327277
41	0x3e42c1ae	0.19019195
42	0x3db02cac	0.086022705
43	0x3e9c6c76	0.305515
44	0xbe005ff8	-0.12536609
45	0x3d5971c8	0.053087026
46	0xbd1a2a2f	-0.037637886
47	0x3d096e26	0.03355231
48	0x3c35debd	0.011100468
49	0xbc85de19	-0.016341256
50	0x3da98b97	0.08278578
51	0x3e9f800d	0.31152382
52	0xbdfa1a4f	-0.12212049
53	0xbd6f36dd	-0.05840193
54	0x3d9a4f01	0.075346
55	0xbda0ce90	-0.07851899
56	0x3e5d5572	0.21614626
57	0xbdc3af5e	-0.09554933
58	0x3d34d547	0.04414871
59	0x3bde0dff	0.006776571
60	0xbdbafb90	-0.09130013
61	0xbdc70fbf	-0.097198
62	0x3e3ffd6e	0.1874902
63	0xbc65f731	-0.014035986
64	0xbd8fb137	-0.07016223
65	0x3d1b73b3	0.037952136
66	0xbd789cb5	-0.060696322
67	0x3d9619d8	0.07329148
68	0xbd03f1c6	-0.032212995
69	0x3e6a8c66	0.2290512
70	0xbd6986a1	-0.057013158
71	0xbdc3790c	-0.09544572
72	0xbe4c0f19	-0.19927634
73	0x3d8c882d	0.06861911
74	0x3ca5434e	0.020173695
75	0x3d5dabb3	0.054118823
76	0x3e66cf32	0.22539976
77	0x3db36f27	0.08761435
78	0xbdb7a4f4	-0.08967009
79	0xbe44ef38	-0.1923188
80	0xbe02f1e5	-0.12787588
81	0x3e6190fd	0.22027965
82	0x3e57eb47	0.21085845
83	0xbdb9b3b2	-0.09067477

11.weight f4 [10, 84]
0	0x3d74e860	0.059791923
1	0xbdce9114	-0.10086265
2	0xbd83ccea	-0.06435569
3	0x3c886761	0.016650857
4	0x3e379bea	0.1793057
5	0x3de7f19e	0.11325382
6	0x3e82f45a	0.2557705
7	0xbd8a9125	-0.06765965
8	0x3dc9f412	0.09861006
9	0xbe885484	-0.2662698
10	0x3da6098c	0.0810729
11	0xbdbacefa	-0.09121509
12	0xbd22df7f	-0.039763924
13	0xbe29fb13	-0.16599683
14	0x3d4d56c6	0.05013158
15	0x3d950a45	0.072773494
16	0x3d14d965	0.036340136
17	0x3c20deda	0.009818757
18	0xbddedcd7	-0.108819656
19	0x3e21c47d	0.1579761
20	0xbb9f5e27	-0.0048635188
21	0x3ecb67d7	0.3972766
22	0x3dc57491	0.09641374
23	0xbe89fbfb	-0.26950058
24	0x3dda636d	0.10663495
25	0xbd880ee6	-0.06643467
26	0xbcca1f8b	-0.024673244
27	0xbd5f796f	-0.054559167
28	0x3e873af6	0.2641217
29	0x3ee9d251	0.4566827
30	0xbdee7ebc	-0.116452664
31	0xbe9a6093	-0.30151805
32	0xbe8fac6f	-0.28061244
33	0xbea26565	-0.31717983
34	0xbe511947	-0.20419799
35	0x3deeaa85	0.11653618
36	0xbd87bab6	-0.06627409
37	0x3e64dc57	0.22349678
38	0x3edb64eb	0.42850432
39	0x3df6c9a3	0.12050178
40	0xbeb4ed8e	-0.3533749
41	0xbd31b171	-0.043382112
42	0x3e69c2d6	0.2282823
43	0xbdbbf60f	-0.09177791
44	0xbc6dcf60	-0.014514774
45	0x3ddaab11	0.106771596
46	0x3d430be7	0.047618773
47	0x3d05a4cd	0.03262787
48	0x3d907416	0.07053392
49	0xbd948162	-0.0725124
50	0xbcb88511	-0.022524389
51	0xbe3555e7	-0.1770855
52	0x3d2fb07f	0.04289293
53	0x3dcb96e4	0.099408895
54	0xbe168553	-0.14699297
55	0x3d3142af	0.043276485
56	0xbe6e068c	-0.23244685
57	0x3ea8a823	0.32940778
58	0x3dce070c	0.10059938
59	0x3e2f0982	0.1709347
60	0x3d3e6acc	0.04648857
61	0x3e59ef32	0.21282652
62	0x3e0c9138	0.13727272
63	0x3e9507e7	0.29107592
64	0x3db6884f	0.089127176
65	0xbdae110d	-0.08499346
66	0x3dd94ba4	0.106101304
67	0x3e5a154b	0.21297185
68	0x3e390e5a	0.18071881
69	0xbe6cf1ba	-0.23139086
70	0xbe134f5c	-0.14385742
71	0x3a7512f9	0.00093488354
72	0xbe3223ac	-0.1739642
73	0x3e2ade51	0.1668637
74	0x39172d94	0.00014417461
75	0x3ca37b64	0.019956298
76	0xbe3b083a	-0.18264857
77	0xbe08e669	-0.13369144
78	0x3dbe0842	0.09278919
79	0x3da454ab	0.08023962
80	0x3e084d91	0.13310839
81	0xbea7e6da	-0.32793313
82	0xbe40abb6	-0.18815503
83	0x3e494932	0.19656828
84	0xbed5f0a3	-0.41785154
85	0x3e5a7673	0.21334247
86	0xbea774d1	-0.3270631
87	0x3db690c1	0.08914328
88	0xbe922f44	-0.28551686
89	0x3e226f9b	0.15862887
90	0xbd907885	-0.07054237
91	0xbe080024	-0.13281304
92	0x3e178e5a	0.14800397
93	0x3dfc5937	0.12321704
94	0xbd1edad8	-0.038782924
95	0xbeb225f2	-0.34794575
96	0xbd04afa9	-0.032394085
97	0x3cbd87e3	0.023136085
98	0x3d33b265	0.043871302
99	0xbd57087b	-0.052498322
100	0xbea7ba30	-0.32759237
101	0xbd67fcc9	-0.05663756
102	0xbdbb2abf	-0.091390125
103	0x3efa067b	0.4883307
104	0x3d2ac8b8	0.041695327
105	0xbde89cea	-0.11358054
106	0xbe38732b	-0.18012683
107	0xbe753f0c	-0.23949832
108	0xbe33aebf	-0.17547129
109	0x3daf3006	0.085540816
110	0x3d8529c4	0.06502107
111	0xbe686dae	-0.2269809
112	0x3e696065	0.22790678
113	0xbe3cc258	-0.18433511
114	0xbd49eb5b	-0.049296718
115	0xbdac4876	-0.08412258
116	0x3e875a5d	0.2643613
117	0xbdfabbd6	-0.12242858
118	0xbdfe966c	-0.124310344
119	0x3e834bf3	0.25643882
120	0xbe1aeb16	-0.1512874
121	0x3d540811	0.051765505
122	0xbd6af214	-0.05735977
123	0xbd77ccd7	-0.060498085
124	0x3e9ae0de	0.30249685
125	0x3e289f1c	0.16466945
126	0x3e2561a7	0.16150533
127	0xbe237dd5	-0.1596597
128	0xbe904c87	-0.28183386
129	0xbda3f4e7	-0.08005696
130	0xbdc4244b	-0.09577235
131	0x3d8d3588	0.06894976
132	0x3d0ddc36	0.034633838
133	0x3e402469	0.1876389
134	0x3b6ed3f6	0.0036442257
135	0xbc847f9a	-0.016174126
136	0xbe02232a	-0.12708727
137	0xbdab2441	-0.08356524
138	0x3e125a78	0.14292324
139	0xbd9fbf61	-0.078001745
140	0xbd1987fc	-0.0374832
141	0xbdc8f4a3	-0.09812286
142	0xbe64754a	-0.22310367
143	0xbe474a09	-0.19461836
144	0xbddc95a6	-0.10770731
145	0x3e41e069	0.18933262
146	0x3e0150f3	0.12628536
147	0xbe804ce9	-0.25058678
148	0x3e972c4a	0.29525977
149	0x3e92f627	0.28703424
150	0xbd1c5ff8	-0.03817746
151	0xbd2be3a2	-0.041965134
152	0xbed06b56	-0.4070689
153	0x3bfa5b8d	0.0076403082
154	0x3d2a5c40	0.041591883
155	0xbe0929ed	-0.133949
156	0x3e3477a5	0.17623766
157	0xbd8b46e6	-0.06800632
158	0x3e6885f8	0.22707355
159	0x3e2675a6	0.16255817
160	0x3db48a67	0.08815461
161	0x3dce62a5	0.10077409
162	0x3e057b46	0.13035306
163	0x3e89c1d0	0.2690568
164	0xbc3cac27	-0.011515654
165	0xbd14c50f	-0.036320742
166	0xbe361ee2	-0.17785218
167	0x3e2c1b3a	0.16807261
168	0x3dfa7c68	0.1223076
169	0x3e3a931e	0.18220183
170	0x3dbec003	0.09313967
171	0xbd54c789	-0.051948104
172	0x3e58ee6d	0.21184702
173	0xbe21e51c	-0.15810055
174	0x3e29650b	0.16542451
175	0x3e7fa761	0.24966194
176	0x3dfaa01a	0.12237568
177	0x3e2a62f8	0.16639316
178	0xbd21dc03	-0.03951646
179	0xbe4aaacc	-0.19791716
180	0xbe28f954	-0.16501361
181	0x3d6dc6c0	0.05805087
182	0xbdd295da	-0.10282488
183	0x3e80073b	0.25005516
184	0xbe01967e	-0.12655064
185	0xbe69a31c	-0.22816128
186	0xbdada1d1	-0.0847813
187	0x3e1692b4	0.147044
188	0x3e76367c	0.24044222
189	0x3dce942d	0.10086856
190	0xbe5d5a46	-0.21616468
191	0x3dc2b8b8	0.095078886
192	0x3e9283bd	0.28616133
193	0x3e6df465	0.2323776
194	0xbdabd243	-0.083897136
195	0xbd2e74f5	-0.042592008
196	0xbe15cd12	-0.1462901
197	0x3dc5df43	0.096617244
198	0xbd0eb659	-0.03484187
199	0x3c46208c	0.012092721
200	0x3e337a80	0.17527199
201	0x3e221138	0.15826881
202	0x3e1215f4	0.14266187
203	0xbe4f65fb	-0.20253746
204	0x3b4a8099	0.0030899404
205	0xbe8f31a7	-0.2796757
206	0xbcd5fa0d	-0.02612021
207	0x3dcd3be5	0.100211896
208	0xbe4373bb	-0.19087116
209	0x3d9f2bcb	0.07772025
210	0xbd865bf2	-0.06560506
211	0x3e708aec	0.23490494
212	0x3da93184	0.082613975
213	0xbe0183ac	-0.12647885
214	0xbe41cabd	-0.18924995
215	0xbe2b7565	-0.16744001
216	0x3dda7b60	0.10668063
217	0x3e2b4b86	0.16728029
218	0xbd223df1	-0.039609853
219	0x3dd17df8	0.10229105
220	0x3ddde1e5	0.108341016
221	0x3ebb82fc	0.3662337
222	0x3ea6c46a	0.32571727
223	0x3d661311	0.056170527
224	0xbe46b120	-0.19403505
225	0xbe76f51a	-0.24116936
226	0x3e8b4742	0.27202803
227	0x3e9ccc77	0.30624744
228	0xbd27773f	-0.040885206
229	0xbe043aa9	-0.12913002
230	0x3e945baa	0.28976184
231	0x3ec4e31b	0.38454518
232	0xbe847473	-0.25870094
233	0xbd8ce9dd	-0.068805434
234	0xbdcdc6db	-0.10047694
235	0xbe0336a1	-0.12813808
236	0x3e4e21c7	0.20130073
237	0x3d5f1a82	0.05446864
238	0x3d9ee156	0.07757823
239	0xbeba84ba	-0.36429387
240	0xbe18b506	-0.14912805
241	0xbd83a3dd	-0.06427739
242	0x3ed514e5	0.41617504
243	0xbe0220f3	-0.12707882
244	0x3b50ab40	0.0031840354
245	0xbe677234	-0.22602159
246	0x3eb3d452	0.35122925
247	0xbeac67db	-0.33672985
248	0xbdf7e6e2	-0.12104584
249	0x3de0fd6b	0.10985836
250	0x3ddc8139	0.10766835
251	0xbe33ef6f	-0.17571805
252	0x3e18717b	0.1488704
253	0x3e5a11ae	0.21295807
254	0xbe2ad41c	-0.16682476
255	0x3dfab207	0.12240987

11.bias f4 [10]
0	0xbec46a65	-0.38362423
1	0xbda82341	-0.08209849
2	0x3e3d3241	0.18476202
3	0x3e1f725d	0.1557097
4	0x3ed66efb	0.41881546
5	0xbed6d410	-0.41958666
6	0x3e51319c	0.2042908
7	0xbe8973e4	-0.2684623
8	0x3dfd4017	0.1236574
9	0xbdc0695b	-0.09395095
