model.pkl (torch_old, 249657 bytes, 10 tensors)

0.weight f4 [6, 3, 5, 5]
000000 cd 5f bf bd 88 36 84 be 17 68 aa be ad 9d c7 be
       -0.093444444 -0.25822854 -0.3328254 -0.38987485
000010 8e b0 f8 bb 34 62 98 be 08 db c1 be 72 2b b0 be
       -0.0075894063 -0.29762423 -0.3786242 -0.34408146
000020 61 73 11 bd 53 ce 52 3e 1a 30 6d be 34 89 9a bd
       -0.035510425 0.20586519 -0.2316288 -0.07545701
000030 ed 36 aa 3e 92 ab 06 3f 73 42 db 3e 59 c8 53 3d
       0.3324503 0.52605546 0.42824134 0.05170474
000040 5e a2 0b 3f 17 da 38 3f b4 e3 0d 3f 30 c7 e1 3e
       0.5454463 0.7220778 0.5542557 0.4409728
000050 7f cc 89 3e 0c e4 16 3f 8f ba ce 3e 16 f9 d6 3e
       0.2691383 0.5894172 0.40376708 0.41986912
000060 b2 c3 6b 3e d3 41 60 3d 16 fc 91 be 53 f1 c0 be
       0.2302387 0.054750275 -0.2851264 -0.37684116
000070 76 78 c5 bd 46 5f 6e bc f5 ee 00 bf f1 02 2d bf
       -0.09642117 -0.014549082 -0.5036462 -0.67582613
000080 03 34 e2 be d2 a3 f1 bd d7 3d a8 bc 8a 5e 1c bf
       -0.44180307 -0.11798824 -0.0205373 -0.61081755
000090 80 7a 88 be 07 d6 03 3d 2d 19 7f 3e f1 f8 a0 3c
       -0.2665596 0.032186534 0.24911948 0.019649955
0000a0 fa 2d a8 be c0 29 a8 3d 03 a7 86 3e 25 8a 5c 3e
       -0.32847577 0.08211088 0.26299295 0.21537073
0000b0 76 63 e6 3b c2 be 91 bd 81 43 e4 bc 5e a0 8d 3c
       0.0070308996 -0.07116462 -0.02786422 0.017288383
0000c0 08 f7 4d be d8 2d dc be 5b 8e 86 3e f1 18 e7 3d
       -0.20113766 -0.43003726 0.26280484 0.11284054
0000d0 2c 45 8b bd c2 45 f9 3d 92 38 40 3e 32 35 80 be
       -0.06800303 0.12171508 0.1877158 -0.25040585
0000e0 0f d7 8d be 7e 6b 35 be b7 27 b4 3d b1 07 8a 3e
       -0.2770314 -0.17716786 0.087966375 0.26958993
0000f0 f0 5f b2 be a9 82 cc bd 61 1d b9 3d 0c dc 58 3e
       -0.3483882 -0.09985859 0.09038807 0.21177691
000100 0b f5 53 3e 92 86 bd bd 68 ab 06 3e 7f 14 bc 3e
       0.20698945 -0.09254183 0.13151324 0.36734387
000110 bd 21 af 3e e9 e5 0e 3e b6 00 9f 3d cf ac 7c 3e
       0.34205428 0.13954891 0.077638075 0.24675296
000120 87 56 d8 3d c6 6c 72 ba 18 6c 68 be c4 b9 b7 bd
       0.10563379 -0.0009247776 -0.22697484 -0.08970979
000130 ea d0 f6 bc ac bb e0 bd 97 2b d6 bd d5 2a 9f 3c
       -0.030128915 -0.109732956 -0.10457533 0.019429604
000140 47 04 b4 3d fb 50 c4 3d 2a 1f 97 3b 25 21 16 3c
       0.08789878 0.09585758 0.0046118693 0.009163176
000150 c7 1f dc ba 83 46 85 3d 40 53 dd 3d 9e e5 6f bd
       -0.0016794138 0.0650759 0.10806894 -0.05856859
000160 6a f8 fc 3c af d6 ba 3d 13 12 e4 bd 78 e5 b5 bd
       0.030880172 0.09122979 -0.1113626 -0.08881658
000170 4f 18 bf bd a5 35 de bd 12 cf d9 bc 5f 38 95 bd
       -0.09330808 -0.10850076 -0.026587997 -0.072861426
000180 c0 d8 2e bd 23 18 f1 bc 59 29 93 bd dd e9 d6 ba
       -0.042687178 -0.029430455 -0.07185621 -0.0016396601
000190 59 64 1c bd 73 49 c9 3d cd 14 8b bd 0b b9 cc bd
       -0.038181636 0.098284625 -0.06791077 -0.09996232
0001a0 35 a6 bd bd d3 18 db bc 1e 2b ca bd 66 c7 6f 3d
       -0.09260217 -0.026745236 -0.09871505 0.05853977
0001b0 26 70 29 bd 1b 5f 43 bc 1a 66 82 bd 89 55 b2 bd
       -0.04136672 -0.01192453 -0.063671306 -0.08707721
0001c0 ff d7 fe 3c 08 a5 76 bc cc dd 92 3d e4 9d c2 3d
       0.031108854 -0.015053995 0.07171211 0.095027715
0001d0 71 e5 87 3d 36 e8 b6 bd 56 f8 9e 3d 39 d8 dc bd
       0.06635559 -0.089310095 0.0776221 -0.10783429
0001e0 b7 a6 86 bd ec c0 e8 bc c8 95 ba bd 97 01 67 bc
       -0.06574767 -0.028412305 -0.091106 -0.0140995
0001f0 55 ba af 3c 13 21 ff bc 0f 5c a0 3c 87 c1 bf bb
       0.021451155 -0.0311437 0.019575147 -0.0058519277
000200 89 3e 8f 3c c7 6a bc 3b 80 38 b6 bd 9b 73 bf bb
       0.017485874 0.0057500335 -0.08897495 -0.0058426387
000210 14 0f df 3d 39 d2 a1 bd 62 9a 80 bc ea 09 7a 3d
       0.10891548 -0.07901425 -0.015698615 0.06104461
000220 21 97 c2 bd 70 26 4b 3d e5 ba b3 bd ca ca 0a 3d
       -0.09501482 0.049597204 -0.08775882 0.0338848
000230 5e df ac 3d 3e 7b 58 bc b0 2a b4 3d a4 cc 16 3d
       0.084410414 -0.013212977 0.087972045 0.036816254
000240 d2 23 d3 bd e0 fa 64 bd 67 b9 e7 bd 9c c3 89 bd
       -0.103095666 -0.055903316 -0.113146596 -0.06726763
000250 74 b2 f8 3c c7 01 c3 3d 67 6d 73 be 69 6f 8b 3d
       0.03035853 0.095218234 -0.23772202 0.06808359
000260 c9 03 08 bd 28 e3 84 3c fe 76 fb 3c f9 04 f8 bd
       -0.033206735 0.016221598 0.030696388 -0.121103235
000270 63 7f b8 3d 5c c0 b5 3c c9 f4 6f 3e b2 a8 d0 bc
       0.09008672 0.02218645 0.23433222 -0.025471065
000280 17 af 88 3d 3d cf 0a 3e 1a 33 9a 3e bf b5 8a 3e
       0.06674021 0.13555618 0.30117112 0.27091786
000290 d1 02 67 3e 81 cf fb 3d 97 a3 b3 3e 8d 04 ed 3e
       0.22559668 0.122954376 0.35085747 0.46292534
0002a0 6c 31 fd 3e e4 55 d3 3e a2 92 a3 3e b8 af 94 3e
       0.49451768 0.41276467 0.3194781 0.29040313
0002b0 b1 97 dd 3e 14 6d 18 3f f3 7e f3 3e 74 52 e3 bb
       0.43279794 0.5954144 0.47557792 -0.0069373194
0002c0 3f 14 4b 3e 5d 1f 16 3e 41 28 82 3e b7 b4 ce 3d
       0.19831942 0.14660402 0.25421336 0.10093062
0002d0 64 6d 4b bd 82 5e b6 3d eb 4e 84 3e 6a f4 d1 3e
       -0.04966487 0.08904745 0.2584146 0.41006786
0002e0 7d 7d 32 3c bf 4d 46 bd 7c aa a5 3d ef 6c 6b 3e
       0.010894177 -0.04841399 0.08089158 0.22990774
0002f0 1a e2 a4 3e fe 36 84 3e 48 b3 4f 3d b0 ef 97 3d
       0.32203752 0.25823206 0.050708085 0.07418764
000300 7d 69 c8 3d 4c a7 28 3e 83 4e 5f bc 82 55 76 bd
       0.09785745 0.16470069 -0.0136295585 -0.06014014
000310 33 99 0b 3e e6 4c 37 3e 21 02 a0 3e 98 6a eb 3d
       0.1363266 0.17900428 0.31251624 0.114949405
000320 4a bb f9 be 7b d7 8e be 2f 96 2e be 0e 44 70 3d
       -0.48775703 -0.27898774 -0.17049478 0.058658652
000330 b3 22 b0 bd 35 41 b5 be 1d cc 70 be a6 13 ef bc
       -0.08600368 -0.35401312 -0.23515363 -0.029184174
000340 a4 f1 1d bd 85 8a 63 be 05 2a d2 be 1b 0d 38 be
       -0.038560525 -0.2222081 -0.41047683 -0.1797375
000350 0a fb fa bd 52 a2 5f 3d c6 ba ab bd f6 f0 94 be
       -0.12254913 0.05459816 -0.083852336 -0.2909009
000360 4d b8 d1 bd f2 cd cf 3c cf 6b 19 be 63 2a 60 be
       -0.10240231 0.025366757 -0.14982532 -0.21891169
000370 36 a9 c2 be d3 ee 6f be 28 14 0c bd 5f 25 16 bc
       -0.38019723 -0.23430948 -0.03419891 -0.009164183
000380 9c d1 c6 be 23 63 d8 bd 6f a1 b8 bd 0b 64 15 be
       -0.38831794 -0.10565784 -0.09015166 -0.14588945
000390 87 5d a6 bd 1f af 16 bd 4b fa 2d be 01 31 e7 bd
       -0.08123308 -0.036788102 -0.1699001 -0.11288644
0003a0 e3 ba 1b be 85 50 19 be 5b fa 65 be 0e 24 4f bd
       -0.1520801 -0.14972122 -0.22458784 -0.050571494
0003b0 3b 3a b2 bd b6 8b 7a bd 82 1f 2d bd 9c 71 a8 bd
       -0.08702513 -0.061168395 -0.042266376 -0.08224794
0003c0 03 40 ae 3c ec f8 37 3d eb 8a 3c bd 4d 37 96 3c
       0.021270758 0.044915125 -0.04603092 0.018336916
0003d0 be 06 76 3d 91 6d d8 3d f3 b5 36 3e e1 1c 1e 3e
       0.060065024 0.10567773 0.17842846 0.15440704
0003e0 0c f9 30 3e 46 64 6d 3e 08 fc bc 3d 7f c6 2d 3e
       0.17282504 0.23182783 0.09227759 0.16970252
0003f0 35 25 6a 3c ba ed e0 3d 9d 33 bb bc b8 64 2f 3d
       0.014291097 0.10982843 -0.02285176 0.042820662

0.bias f4 [6]
000000 18 04 a6 bd 49 20 f6 3c bd ed 5c be 59 5d 3e bf
       -0.081062496 0.030044692 -0.21575065 -0.7436119
000010 ae e9 e1 bc ba b5 9c bd
       -0.027577247 -0.07651849

3.weight f4 [16, 6, 5, 5]
000000 ca 09 48 3c 2f 78 6e 3d 2f 05 9c 3d dc a0 8b bd
       0.012209365 0.058220085 0.07618176 -0.06817791
000010 9b 2a 70 bd 46 c8 1b 3d c6 8d 0c 3e 3d 99 7f 3d
       -0.05863438 0.038032793 0.13725957 0.062402
000020 6f 87 d4 bd b3 39 56 3c 91 9e 9f 3c 50 76 85 3e
       -0.103773944 0.01307528 0.01948479 0.26066828
000030 c5 ff 05 bd d2 7b d3 bd 1d bc 1b bd 47 80 01 3e
       -0.032714624 -0.10326351 -0.038021196 0.1264659
000040 fd 63 15 3d b6 e5 92 bd af 00 8c 3c ce 8a 1d 3d
       0.03647231 -0.0717272 0.01709017 0.038462453
000050 1a 63 ac 3d 01 25 eb 3c 8c 4f 46 3d f8 da 38 3c
       0.084173396 0.028704168 0.048415706 0.011282675
000060 8a 87 39 3d d2 1a e9 3b ee b2 1b 3c 31 94 68 bd
       0.045295276 0.007113793 0.009503109 -0.05678195
000070 6a 39 52 bd 53 1b f5 bc 3a 8a 69 bd 82 40 8d 3d
       -0.051324286 -0.029920256 -0.05701659 0.068970695
000080 52 cc 6d bd 3e 04 68 3c be 5c 80 3d de 4a 61 bd
       -0.058056183 0.014161168 0.06267689 -0.05500304
000090 67 48 cf bc b6 87 d4 3c 56 d8 03 bd 51 0a 14 3d
       -0.025303079 0.025943618 -0.032188736 0.03614265
0000a0 83 8d 01 3d 94 a1 e3 bc 6f 68 4e 3d 53 38 71 bd
       0.031629097 -0.027787007 0.050392564 -0.058891606
0000b0 3c f2 11 bc 5f 65 a5 3c 7f e6 10 3c 46 11 2d 3d
       -0.008907851 0.020189939 0.008844017 0.0422528
0000c0 0b b9 8c 3d 55 35 41 bd 25 80 82 bd 6f 49 1a bd
       0.06871232 -0.047170002 -0.06372098 -0.037667688
0000d0 08 99 09 be b3 7c c9 bc 60 47 90 3c 09 10 fd 3d
       -0.13437283 -0.024595594 0.01761216 0.12356574
0000e0 90 19 e0 3d dd d9 2b be 43 4f 59 bd c2 30 c9 3d
       0.10942376 -0.16782327 -0.053054105 0.09823753
0000f0 13 dd cf 3d 31 a3 69 3e 0f b3 a9 bd b7 1f 7e be
       0.101495884 0.22816159 -0.08286106 -0.24816786
000100 81 86 80 3d a8 43 84 3c 1a 2c 77 3e 61 20 05 bd
       0.062756546 0.016145542 0.24137917 -0.032501582
000110 7d 01 08 be 37 a9 43 bc 16 56 76 3c 82 b3 87 3d
       -0.13281818 -0.011942199 0.015035173 0.06626035
000120 e2 38 e1 3c ff 3d 56 3d ff d1 c2 bd f9 fb 47 3d
       0.027492944 0.052305218 -0.0951271 0.048824284
000130 b5 0b 3d bd ad b6 62 bd 54 53 17 bd d6 2a 21 3d
       -0.046153743 -0.055349994 -0.036944702 0.039347492
000140 7c 43 29 3e 2e 98 de 3d ae 41 5b bd e5 e2 47 be
       0.1652965 0.1086887 -0.053529434 -0.19520147
000150 7d 91 c5 bd 94 1b 80 3e 01 79 95 3e 32 b7 6b bc
       -0.0964689 0.2502104 0.2919388 -0.014386939
000160 2a 3d 66 be ec a2 8a be 54 be 84 3e 44 40 9f 3e
       -0.2248427 -0.27077425 0.2592646 0.31103718
000170 c9 80 15 3e e8 24 44 be c3 d6 85 be 11 8d d6 3d
       0.14599909 -0.19154704 -0.26140413 0.10476125
000180 b1 04 4f 3e 5d ff b0 3d d3 c5 42 bd 73 04 44 be
       0.20216633 0.08642457 -0.04755194 -0.19142322
000190 de 59 a7 3e dc 4a aa 3c 7a be 7c be 80 01 16 be
       0.3268575 0.020787649 -0.24682036 -0.1464901
0001a0 37 ab 15 bd 6c 5a bd 3e 8a a4 86 3e 56 3a 61 bd
       -0.036540236 0.3698305 0.26297408 -0.054987274
0001b0 b8 99 bc be d1 dd d7 be ba 87 85 3e 2a cc e1 3e
       -0.36836028 -0.4216142 0.26080114 0.44101077
0001c0 f4 fb fe 3c d1 35 0a bf 21 5d 0f bf 10 2e 10 3e
       0.031126 -0.5398837 -0.5600148 0.14080071
0001d0 d0 b7 ce 3e c7 7d 4d 3e dc a6 b1 be 87 6a fc be
       0.40374613 0.20067511 -0.34697616 -0.49300024
0001e0 cf 84 f4 3d f6 65 a6 3e 47 fd 04 3e 11 5c b7 bd
       0.11939394 0.32499665 0.12987243 -0.08953107
0001f0 f3 41 34 be ba 94 eb 3d 4d 81 c3 3d 98 15 62 3d
       -0.17603283 0.11502977 0.095461465 0.055196375
000200 f7 72 2d bd de 4d a1 b9 54 5c 94 bd 54 af 66 bb
       -0.042345967 -0.0003076633 -0.07244173 -0.0035199719
000210 91 c4 0d 3e e9 96 42 3c fc 23 49 3d 76 e9 c9 bd
       0.13844515 0.0118768 0.049106583 -0.09858982
000220 9a 58 ec bd 5d e0 3d bd 95 fc c3 bc da 6d d3 3a
       -0.11540337 -0.046356548 -0.023924151 0.0016130761
000230 a9 cc f2 bd e9 c3 45 be b0 99 86 bd 26 68 dd bd
       -0.11855442 -0.19313015 -0.06572282 -0.1081088
000240 12 43 8e bd db ff 1b bd aa 88 2f bd b2 3f 2e be
       -0.069463864 -0.0380858 -0.042854942 -0.17016485
000250 08 2c a1 bd 24 b0 4f 3c 0c 02 3e bd d3 69 ec bd
       -0.078697264 0.012676273 -0.04638867 -0.11543622
000260 89 9e 48 bd 0b cb 8c bd 47 70 db 3d 45 0f 5b 3c
       -0.048979316 -0.06874665 0.107147746 0.01337034
000270 e5 76 b4 bc e2 4c b7 3d 58 2b 41 bd 30 b6 87 3d
       -0.02202935 0.08950211 -0.047160476 0.066265464
000280 f7 3e c3 3b 6e 2d 2c bd 54 b7 bf bd 11 ba 80 bd
       0.0059584337 -0.042035513 -0.09361139 -0.06285489
000290 94 83 bc 3d 59 4b 77 3d 65 d5 b7 bd 5e 4f 80 bd
       0.09204784 0.06037459 -0.08976249 -0.06265138
0002a0 ce 67 46 3d a4 a9 0c 3e c0 9d 95 3d a4 74 e2 3c
       0.04843884 0.13736588 0.07305479 0.02764351
0002b0 c7 5b a5 bd 54 98 c4 3d 61 e4 94 3c 5f 0c 32 bd
       -0.08074146 0.09599367 0.018175306 -0.04346883
0002c0 17 86 e7 bc f4 be 6f 3d 9a b0 26 bd a5 7c 99 3d
       -0.028262181 0.058531716 -0.040695764 0.07494477
0002d0 d6 78 9a 3d 69 22 84 3d 54 5c e4 bc a1 8b 98 bd
       0.07542579 0.06451876 -0.027876057 -0.07448507
0002e0 dc 47 04 3d 06 45 12 3d 7a c3 55 bc f9 5b 89 bd
       0.032295093 0.035710357 -0.0130470935 -0.067069955
0002f0 8a 72 9e 3d 7c db 48 3b 33 de 08 3b 25 9d 5f 3d
       0.0773669 0.00306484 0.0020884394 0.054593224
000300 56 63 4d bc 4f 5a 41 bd 24 b7 3c 3d b4 10 81 bd
       -0.012535891 -0.047205266 0.046073094 -0.06302014
000310 3c 1c d4 3c d3 04 12 bd ce d1 8a bd be c1 55 bd
       0.02589237 -0.035649132 -0.06778298 -0.05218672
000320 5b 74 81 be c2 1f 2c be 85 f0 bf bd b4 13 a0 bd
       -0.25284085 -0.1680899 -0.09372047 -0.07816258
000330 3e 79 2e 3e 39 36 5c be 9e 64 0b bd 94 ee 75 bd
       0.17038438 -0.2150506 -0.034031503 -0.06004198
000340 e2 a8 05 3d e2 4a 63 3e 91 6c 46 be 17 b1 25 be
       0.032631762 0.22196534 -0.19377352 -0.16180836
000350 4c 7f 38 be 42 0e 8c 3c ac 91 59 3e 57 ce 88 be
       -0.1801731 0.017096642 0.21246976 -0.26719925
000360 14 6a 29 be ab 84 1a be b7 64 a1 3d b5 d1 12 3e
       -0.16544372 -0.15089671 0.07880538 0.1433781
000370 2a 2a bb be d2 8b 27 be e5 bb 22 be 8a fc 27 3d
       -0.36555606 -0.16361931 -0.15891989 0.041012324
000380 b4 2d 30 3e 19 90 99 3d f4 f1 aa bb 37 5f 02 3d
       0.17204934 0.074981876 -0.0052168313 0.031829085
000390 12 8f dd bc fa 61 5b bc 22 9c 2c 3d 7a 4f 91 bc
       -0.02704576 -0.013390059 0.042141087 -0.017738093
0003a0 b5 4e a6 3d e6 b2 6b 3d 76 33 37 bd df 8d b9 3d
       0.08120481 0.057543658 -0.04472681 0.09060263
0003b0 6e 27 0e 3e bf 1d 12 3e 59 67 c6 3d ae 8a 8e 3d
       0.13882229 0.1426916 0.09687681 0.06960045
0003c0 a0 ba e2 3d 47 ef 4c 3e d5 fb 12 3e fb 21 d3 3c
       0.11070752 0.20013152 0.14353879 0.02577304
0003d0 63 a6 86 3d 5f 44 93 3d 6b f4 05 3e 73 ad 03 bd
       0.065747045 0.07190775 0.1308152 -0.032147836
0003e0 b8 38 c7 3c b2 cb c1 bc d2 c5 5c bd 06 90 0b bd
       0.024319038 -0.0236567 -0.053899594 -0.0340729
0003f0 ea 40 b0 bd ab 2b eb 3a 6e 06 9f bc d6 93 95 3d
       -0.086061314 0.0017942091 -0.019412246 0.07303588

3.bias f4 [16]
000000 e0 15 58 3d 05 1a 02 be c2 29 c2 3d e9 06 b9 3d
       0.052755237 -0.12705238 0.09480621 0.09034521
000010 dc 65 2c be 43 de 56 3d aa 54 b2 bc 21 68 0b 3f
       -0.16835731 0.05245806 -0.021768887 0.54455763
000020 e1 94 e4 bc 74 1a 26 bd 49 a5 85 3c a2 a0 09 be
       -0.027903022 -0.04055257 0.016314166 -0.13440183
000030 6e a6 1e 3e 8d 71 58 be f8 b8 7c bc d6 8a 14 3d
       0.15493175 -0.21137066 -0.015424959 0.036265217

7.weight f4 [120, 400]
000000 6c 71 02 bb 75 20 49 bd 72 e6 50 bd e3 5f d8 bd
       -0.001990403 -0.04910322 -0.05100102 -0.10565164
000010 0b e0 15 be 3f 71 4b 3c ce 38 ab bc ae ac d6 3d
       -0.14636247 0.012417137 -0.02090111 0.10482155
000020 17 a6 83 bd 8f 02 4b bd fc 5e 71 bc be 21 a6 3d
       -0.064281635 -0.049562987 -0.014732119 0.081119046
000030 df d5 86 3d ff 60 99 3c 54 b2 df bd 36 9e 11 bb
       0.065837614 0.01872301 -0.10922685 -0.0022219545
000040 70 3a f0 3c d0 d0 5e bc 00 a2 0b 3b 6e 00 86 bd
       0.02932474 -0.0135995895 0.0021306276 -0.06543051
000050 84 ac 3e 3d 45 33 30 bd 7c 5b 73 bd 05 56 51 bd
       0.046551242 -0.043017644 -0.05941342 -0.051107425
000060 58 57 18 bd 07 96 38 bd 53 6c 1d 3d 36 b4 d5 3c
       -0.037192672 -0.045064952 0.038433384 0.026086908
000070 8e 3f 16 bc 54 e3 40 bc b9 a9 e9 3c 9d d7 d8 3c
       -0.009170426 -0.011772949 0.028523313 0.02647
000080 0b c0 be 3b 47 fd 9d 3d c6 17 ac 3c 61 0d ff bc
       0.005821233 0.077143244 0.02100743 -0.03113431
000090 3b 63 14 3c 2c fa 71 3d 64 66 7a 3c 39 b0 cf 3d
       0.0090568615 0.059076473 0.015283201 0.10141034
0000a0 03 64 c9 bd d8 50 0a bd 68 7a 3b 3d bb a9 2d bd
       -0.09833529 -0.033768505 0.045771033 -0.042398196
0000b0 86 1a 47 3d c0 c6 69 3c 0d c8 bc bd df 41 89 3c
       0.04860928 0.014268577 -0.09217844 0.016755043
0000c0 9d 08 64 bc fd e7 02 bc e5 22 bd 3c 48 33 aa bc
       -0.013918069 -0.007989881 0.023087928 -0.020776406
0000d0 89 6e e5 3c a8 10 55 bd 59 d8 09 3d 46 72 50 3d
       0.028006809 -0.052017838 0.03365359 0.05089023
0000e0 18 70 a1 bc 11 a8 56 bc aa c0 09 bd aa 17 f9 3c
       -0.01970677 -0.013101594 -0.033631004 0.030406792
0000f0 c8 45 27 3d e4 5e 8c 3c 4e c6 93 3d 88 e0 26 3c
       0.040838033 0.017135091 0.07215558 0.010185368
000100 5d cb 1e bc 66 b7 26 bd 45 69 b8 3c fd ea 5a 3a
       -0.00969204 -0.040702246 0.022511134 0.0008351056
000110 b3 7c c8 bc cc f9 4c 3c e6 e9 8b bc 05 70 8f bc
       -0.024473524 0.012510728 -0.017079305 -0.01750947
000120 5b 90 f6 bc c7 b5 21 bd 6a a8 0d 3d 1f c6 2f 3c
       -0.03009813 -0.039479997 0.03458444 0.010728388
000130 32 1b 17 3d a1 47 c3 bc 9c 0b 98 3c ae 4a 23 3d
       0.03689117 -0.023837866 0.018560223 0.039866142
000140 01 cf ca bc 59 a9 07 3d 7f 2d 34 bc c1 aa 98 bc
       -0.02475691 0.033120487 -0.010997175 -0.01863611
000150 da 86 60 bc ed c8 8a 3d 2f 07 fa 3c 2e 5f 45 3c
       -0.013704026 0.06776605 0.030521004 0.012046618
000160 fe 96 f5 bc 43 36 33 3d bd 76 bc 3c ec 9f da 39
       -0.029979225 0.04375292 0.023005838 0.0004169935
000170 51 01 1c bc 94 c7 4a bd 59 2b 8a bd 44 9f ce ba
       -0.009521798 -0.04950674 -0.06746549 -0.0015764018
000180 ba e9 27 bd 15 64 b4 3c 06 34 06 bd 7f a1 29 bc
       -0.040994383 0.02202038 -0.032764457 -0.010353445
000190 51 d4 4b bd e9 be c8 3c 2f 42 8f 3c 7b c1 a9 3c
       -0.049763028 0.024505096 0.017487613 0.020722141
0001a0 57 29 63 3c 9c d1 4b 3d 93 34 12 bc b3 be 9c bd
       0.013864837 0.049760446 -0.0089236675 -0.076535605
0001b0 93 81 0c 3d 27 7b aa 3c ef 87 35 bd 5f 10 7f 3c
       0.03430326 0.020810677 -0.04431909 0.015567868
0001c0 23 be 99 3c cf 02 1e 3d e6 ac 37 3d c4 74 86 3d
       0.018767422 0.038576897 0.044842623 0.0656524
0001d0 07 d5 19 bc 24 b1 d2 3c c4 c3 a2 3d 98 cd 90 3c
       -0.009389169 0.025719233 0.079474956 0.01767616
0001e0 b7 cf c5 3d 02 41 0b 3e b0 3e a4 3d d0 dd 14 3b
       0.09658759 0.13599017 0.08019769 0.0022715218
0001f0 4a 9f 92 bc 53 2c b5 bd fd a2 72 bd 77 c1 0d bd
       -0.01789822 -0.08846345 -0.05923747 -0.03460833
000200 e4 5e ac bc c2 47 a8 3d e5 73 8e 3c 2c 8d 3e bc
       -0.021041341 0.08216812 0.017389247 -0.011630338
000210 93 4b d8 bb 45 1b 9d bc f5 ee 9c 3c a5 5c 0c bc
       -0.006600806 -0.019178042 0.019156912 -0.00856701
000220 e7 e3 66 3d 3a 0e 94 3d 2b 5e 59 3d fc 95 80 3d
       0.05636969 0.07229276 0.05306832 0.06278607
000230 04 91 35 3d ca 3a 9f 3d 69 9b 44 3d dc 39 96 3d
       0.04432775 0.07774885 0.047999773 0.073352545
000240 b4 ab ae 3d 7a 54 8d 3c b5 77 06 3d 60 75 3e 3b
       0.085288435 0.017252196 0.032829005 0.002906166
000250 8b e9 9e ba 16 43 33 3d 62 35 9b bd 62 da 46 bd
       -0.0012124045 0.04376515 -0.07578541 -0.04854811
000260 ed 6a 5e bd 61 1d 34 bd ba f3 08 3d 8a cc 9b bd
       -0.05430119 -0.04397333 0.03343556 -0.07607372
000270 15 bb c1 bb 1b e2 7b bd 9a 26 84 3c 21 53 c1 3d
       -0.0059121945 -0.061494928 0.016131688 0.09439684
000280 e1 da cc bc 19 5c 55 bb 6b f9 82 3b dd f5 e2 3c
       -0.025006713 -0.0032556115 0.003997018 0.027705127
000290 bd 2b 3b bc c8 e3 da bd 86 45 0a 3a 13 0a 58 3d
       -0.011424002 -0.10687977 0.0005274642 0.052743983
0002a0 0a 45 d8 3d 58 8f ce 3c e3 00 69 bd 8f a5 fe bb
       0.10560043 0.025214836 -0.05688561 -0.007771201
0002b0 99 ba 29 3d c9 cc 3b 3d 81 81 86 3d 21 0f 40 bd
       0.04143772 0.045849595 0.0656767 -0.046889428
0002c0 50 0c e9 3b 32 e4 9d 3d 47 19 62 3d 16 c7 78 bd
       0.0071120635 0.077095404 0.055199888 -0.06073674
0002d0 d6 31 35 3d 72 6a d7 3d 87 bb 20 3e 56 03 bf 3d
       0.04423698 0.1051835 0.15696536 0.09326808
0002e0 64 64 2a bc 3e 80 11 3d f4 84 d0 3d b2 e7 93 3d
       -0.010399912 0.035522692 0.10181609 0.07221927
0002f0 18 4e a8 3c 86 85 37 bc 19 51 77 3d 4b bc 18 3d
       0.02054505 -0.011201268 0.060380075 0.037288945
000300 55 ce 4e 3d 81 12 45 bd e5 66 01 bd 0a d9 07 3c
       0.050489742 -0.04811335 -0.03159227 0.008291492
000310 fa 8f 2a bc 1a 83 bc bc 4e f1 e1 bb 94 f5 48 bb
       -0.010410303 -0.023011733 -0.006895221 -0.0030663954
000320 18 02 92 3c 28 bd 99 3d cf 9a 8c 3c 8b fa 99 3d
       0.017823264 0.07506782 0.017163662 0.075184904
000330 38 41 92 bd fe 5a de 3c f4 7d 76 3d 22 b6 c1 3d
       -0.07141346 0.027142998 0.060178712 0.09458567
000340 1c 62 20 3d f7 46 0e 3d 30 20 9b 3d 15 91 e7 3c
       0.039156064 0.034735646 0.07574499 0.028267423
000350 78 25 30 3d c2 ea a0 3d e8 27 6a bc 3b 93 53 bd
       0.043004483 0.078572765 -0.014291741 -0.05165408
000360 36 96 89 bd bd 89 0f bd 8f b0 ba bc 59 a6 10 bd
       -0.067181036 -0.035043467 -0.022789268 -0.03531489
000370 69 40 b2 bd be fd 35 bc d8 14 d4 bd 98 36 26 be
       -0.087036915 -0.01110786 -0.10355538 -0.16231763
000380 ed dd ab bd 7a 8e 2f 3d 5e 8b 45 3d f4 ba 8f 3c
       -0.08391938 0.042860486 0.048228614 0.0175452
000390 8f 73 74 bc 2f ea 4c 3d 6a 51 1c 3d f1 1f 05 3b
       -0.014920129 0.050028022 0.03816358 0.0020313228
0003a0 14 f7 55 bc 90 4f 96 bc 61 ab 1e 3d b2 f6 41 3d
       -0.013059396 -0.018348485 0.03873766 0.047354408
0003b0 65 68 46 3d 0a 95 27 bd bc 54 af 3c a3 29 5c 3c
       0.048439402 -0.04091362 0.02140271 0.013437661
0003c0 04 9a a6 bc 43 2a 02 bd 5b 9e f7 bc 3d 77 09 3d
       -0.020337112 -0.031778585 -0.030226877 0.03356098
0003d0 cf be 88 bc 4e ac 99 3b 6f 15 1b 3d 63 f3 3f bc
       -0.016692547 0.00468973 0.037862238 -0.011715743
0003e0 aa 33 3d 3d e0 d0 0b bd 55 52 9e 3c ea 8b 39 bd
       0.04619185 -0.034134746 0.019326368 -0.045299448
0003f0 86 4b 25 ba a5 d7 b6 3c e3 c6 38 bc 23 ba a1 3b
       -0.00063055044 0.022319624 -0.011277887 0.0049355193

7.bias f4 [120]
000000 36 ee bd 3c ff d1 ed bc c6 5e f3 3c a7 12 a4 bc
       0.023184877 -0.029030798 0.029708277 -0.020028425
000010 2e 38 50 bd 66 c1 51 bd 84 fa 79 bd 48 8a 37 3d
       -0.050834827 -0.05120983 -0.061029926 0.04480961
000020 c8 2f ce bc ed 54 80 bd 30 56 f3 bd a2 2b de bc
       -0.025169268 -0.06266198 -0.11881673 -0.027120415
000030 61 71 81 3c fd d9 b3 bc 57 1f 98 bb b0 5d 6d 3d
       0.015801134 -0.02195453 -0.004642408 0.057950675
000040 b6 19 f8 bc 72 89 ce 3b 5d 5a 9c 3d 05 e4 81 bd
       -0.030285697 0.006303006 0.07634423 -0.063423194
000050 c1 73 b3 bd 1e e1 2f 3e 82 0c 1a 3d 9d 40 ec bc
       -0.08762313 0.17175719 0.037609585 -0.028839404
000060 3e dd e8 3b 39 1e 20 be ed 42 c1 3c 14 37 77 3d
       0.0071064522 -0.15636529 0.023591483 0.06035526
000070 00 ee 31 bc 77 4a b1 3d 42 3b 48 3d 30 c1 07 bd
       -0.010859966 0.08656781 0.048884638 -0.033143222
000080 ee 89 ce bc bf c2 ca bc d8 de 24 bd d2 16 5d bd
       -0.025212254 -0.024751065 -0.040251583 -0.05397684
000090 78 f2 90 bc 12 17 1b 3d 85 69 c7 bc 7b be 2a bd
       -0.017693743 0.0378638 -0.024342308 -0.041685563
0000a0 e9 1a 11 3e 22 28 5e 3e 57 98 9d 39 dd b9 9a bc
       0.14170422 0.21694997 0.00030058876 -0.018887455
0000b0 9b 91 dc bd 6f e7 7a bd 69 c1 83 3d c1 91 07 3d
       -0.107699595 -0.06125587 0.064333744 0.033097986
0000c0 81 6c 03 3c 43 6a ee 3b c4 e3 b7 3c bc 89 ba bb
       0.008021475 0.007275851 0.022447474 -0.0056926887
0000d0 7e 8c c6 bc fd 7b 8b bd c6 78 02 ba 4d d7 62 bb
       -0.024236914 -0.06810758 -0.0004977103 -0.0034613193
0000e0 90 43 97 3d 81 19 cd 3c 2e 8c b5 3d 46 d6 92 bd
       0.073859334 0.025036575 0.08864628 -0.07169776
0000f0 c0 c1 e8 bb 4d 3a 63 3c 98 98 a8 bc cf a9 08 3d
       -0.007103175 0.01386888 -0.020580575 0.033365067
000100 07 3d f6 3c 47 38 d7 3d db 57 ee b9 db 1c 58 bd
       0.030058397 0.10508781 -0.00045460355 -0.052761894
000110 91 09 0a bd 12 fb aa bd e9 bb 2f bd 74 bb 4e 3d
       -0.03370053 -0.08348669 -0.042903814 0.050471738
000120 75 23 9c 3c 25 3b b2 3c 4f e6 08 3d 6f 3d 8d 3d
       0.019059876 0.021756718 0.033422764 0.06896483
000130 5b 01 14 3d c0 42 d9 bd 54 6a ed 3c f6 1e e2 bc
       0.036134105 -0.10608435 0.028981365 -0.027602654
000140 b5 a3 0e bd 7d 17 44 3e ef 24 a9 bc ef 40 87 bb
       -0.034824092 0.19149585 -0.020647494 -0.0041276137
000150 d5 cc 9e 3b 88 f5 c4 ba 03 b1 e3 3c 0c 72 ec 3d
       0.004846195 -0.0015026787 0.027794367 0.1154519
000160 1a 61 c5 bc 3f 35 07 bd 9e 58 27 3c ca f8 91 3d
       -0.024094153 -0.033009764 0.010213999 0.07127531
000170 97 f1 cf 3c a4 19 16 bc 8e 6e 3b bd 1d 45 f0 bc
       0.025383754 -0.009161387 -0.04575973 -0.02932983
000180 43 93 83 bc 9d 5a 12 bc 19 b1 b3 bc 09 92 da 3c
       -0.01606143 -0.008932737 -0.021935033 0.026680963
000190 65 fb 36 bd 2a c1 3a 3e b1 b7 c8 bc 50 b9 3f 3d
       -0.044673342 0.18237749 -0.024501653 0.046807587
0001a0 62 92 89 bd ba 69 ca 3c 3c d8 a3 3d a9 41 b3 bc
       -0.067173734 0.024708617 0.08000228 -0.021881895
0001b0 43 ca 0d 3d 95 0a 81 3c 21 47 eb bc cd f3 93 bd
       0.03461672 0.015752116 -0.02872044 -0.07224236
0001c0 97 fb 3f 3d 65 cb 2e 3e f0 09 eb 3c a4 40 7d bd
       0.046870794 0.17069776 0.028691262 -0.061829224
0001d0 87 63 86 bd ba 4d 43 3c 67 b3 1e 3d d3 c1 4c 3c
       -0.06561952 0.011920387 0.03874531 0.012497383

9.weight f4 [84, 120]
000000 64 79 c5 3d 14 7b c0 bd 56 09 8d bb 32 0f 15 3e
       0.09642294 -0.09398475 -0.0043040914 0.14556578
000010 c7 df 9d bd 3c f4 f6 3c 80 41 4f 3c 45 d3 3a 3e
       -0.07708698 0.030145757 0.012649894 0.18244655
000020 48 43 c3 3d 9e 2d bf bd fe 39 22 3e dd e3 0d 3d
       0.09534317 -0.09334873 0.15842435 0.034641135
000030 7b e3 4b 3d b2 6f 88 3d e3 27 40 3d 7e 2e 24 bd
       0.04977749 0.06661929 0.04691304 -0.0400834
000040 a5 30 f3 bc 50 45 8e 3d 62 e7 94 3d 4a 95 0f 3e
       -0.029686281 0.06946814 0.07270695 0.14021793
000050 93 05 34 3d 39 85 1b 3d 7e d0 e8 bd f5 58 e2 bd
       0.04395063 0.037968848 -0.11367892 -0.110521235
000060 79 11 b8 3d 96 80 9f 3d d0 eb 4e 3d 56 39 c2 bd
       0.08987708 0.07788198 0.050517857 -0.09483592
000070 61 ae f7 3d 85 b8 19 3e c0 60 c3 3b 4b 90 f8 bc
       0.12093807 0.15011795 0.0059624612 -0.030342242
000080 9c 3b d4 bd 7f 56 c7 bd 35 13 1c bd 66 e5 b0 3c
       -0.10362932 -0.09733295 -0.038104255 0.02159376
000090 ea 8b bb bd 0c 70 e5 bc 0d bb bb 3d aa ff 4b bd
       -0.09157546 -0.02800753 0.091665365 -0.049804367
0000a0 15 23 0b bd 73 b0 50 3d be 1f 97 3c ee 53 d4 3c
       -0.033969004 0.050949525 0.018447753 0.025918927
0000b0 8f d5 b9 3d e5 0e 1f 3e f3 00 d7 bc cb 3b 43 bd
       0.09073936 0.15533026 -0.02624557 -0.047664445
0000c0 da bc 89 3d 91 b4 fa bd 9a ab 6e bd ac 07 b0 3d
       0.06725474 -0.122414716 -0.05826912 0.08595213
0000d0 4e e4 4a bd e1 93 f8 bd 27 bf e8 bc 1a cf bd bd
       -0.049534135 -0.12137581 -0.028411461 -0.09268017
0000e0 02 54 8d bd 8b 24 a0 bb 0a 98 1c 3d 88 6a 09 3d
       -0.06900789 -0.0048871688 0.038230933 0.03354886
0000f0 57 ac 9b 3d 74 02 b6 bb ff a5 b5 3d b5 6a 2a 3d
       0.076012306 -0.0055544917 0.08869552 0.04160567
000100 9a 0f 29 bd 76 19 0d bd 09 25 ad 3c ee 11 e5 3d
       -0.041274644 -0.03444811 0.021135824 0.111850604
000110 95 72 ab 3d d4 1d 44 bd 61 e6 18 be 22 a6 17 3e
       0.08371464 -0.04788001 -0.14931633 0.14809468
000120 0c 54 97 3c 8d b2 a3 bd 63 ed e9 bd f1 1c 77 3c
       0.018472694 -0.0799304 -0.11422231 0.015082584
000130 6f 3b 53 3d fa 77 d6 bb 75 87 13 3d 63 19 82 bc
       0.051570352 -0.006545064 0.036017854 -0.015881246
000140 b2 46 44 bb 1f 48 86 3c b7 a4 24 bd ce e4 aa 3d
       -0.0029949364 0.016391812 -0.040196147 0.08344422
000150 95 cb 17 3d 7b 50 89 3b 54 a8 19 bd ee 66 1f 3e
       0.037059385 0.004190502 -0.037514046 0.15566608
000160 b4 02 2a bd cb 27 53 3c 4e d3 f9 3d d8 88 08 bd
       -0.041506484 0.012887905 0.12198506 -0.03333363
000170 8b 06 ec bd 4e c5 23 bd 3a d1 f3 bd a3 67 8e 3c
       -0.115246855 -0.039983086 -0.11905141 0.017383402
000180 78 3f 80 3d f6 dd d8 bd d0 98 4f bd dc 74 32 3d
       0.06262106 -0.10589211 -0.050682843 0.043568477
000190 91 31 c0 bb c1 07 44 bc 24 8c 6b bd 37 ca 4e 3d
       -0.005865284 -0.011964739 -0.057506695 0.050485816
0001a0 76 07 f5 bd f8 eb 2c 39 3e ea d2 3d 32 5e a3 bd
       -0.11964314 0.00016491103 0.102985844 -0.07976951
0001b0 3a 96 80 be f4 4f cd 3d 98 f7 87 3d 7f 07 30 3e
       -0.25114614 0.100250155 0.06639022 0.1719036
0001c0 4e f8 e2 3c 07 85 a7 bd 4a 42 34 3d b4 5c 7b 3c
       0.027706292 -0.0817967 0.04400853 0.015341926
0001d0 a0 aa 08 bd 2a a0 8b 3d c2 a3 87 bd 70 d4 ff 3d
       -0.033365846 0.06817658 -0.06623031 0.12491691
0001e0 b7 6f 00 3e 81 f8 35 bc ff ab 90 3d a1 c4 cb bc
       0.12542616 -0.011106611 0.07064056 -0.024874033
0001f0 9e 3f 50 3d 30 78 95 3d 3f 19 e8 3b 6d b1 a6 3d
       0.05084192 0.072983146 0.0070830877 0.0813931
000200 7e ab 64 3d 26 47 c8 bd b3 75 06 3c 52 87 e6 bd
       0.05582761 -0.097791955 0.008206773 -0.11256279
000210 49 ac 3d 3d 00 99 ce bd 2e 4d c6 bd 67 f3 05 bd
       0.046306882 -0.10087776 -0.096826896 -0.03270283
000220 7b 03 0b bd 92 c1 e0 bd 5b 5a 8c bb c2 f5 4d 3d
       -0.033938866 -0.109744206 -0.004283232 0.0502832
000230 48 a4 be 39 e0 68 c3 bd ef 2b f6 3d 6d 1b 04 3e
       0.00036362023 -0.09541488 0.120200984 0.12901087
000240 ed 92 21 be a5 79 24 bd 6d 0d 94 3c 42 2a e9 3c
       -0.15778704 -0.04015507 0.018072808 0.028462533
000250 44 10 34 3d 3c 56 60 3d 70 07 f7 3b 04 5b fb 3c
       0.043960825 0.05476974 0.0075387284 0.030683048
000260 56 be 25 3d 73 92 9e bd 0b aa b5 ba 79 ac 98 3d
       0.04046472 -0.07742777 -0.0013859881 0.074547715
000270 eb 6d bf bc 81 4a cc 3a e9 40 a5 3d cd b6 b0 bc
       -0.023367843 0.0015586169 0.08069021 -0.021571541
000280 88 42 52 bc c0 8b 18 3e 2b 07 46 3d 3a 91 07 3d
       -0.012833245 0.1489706 0.04834668 0.033097483
000290 8f cd ec bc 25 e0 7f bd fc 5e f8 3d 7d b8 0e bc
       -0.028906612 -0.06246962 0.12127492 -0.008710978
0002a0 e5 02 ff 3b 8d db 07 be 4a ad ff 3d 56 81 f2 3c
       0.0077823275 -0.13267346 0.12484224 0.029602688
0002b0 7d 8a 69 bd 0f 03 f5 3b 0f 8d 4c 3d 5f a6 46 bc
       -0.05701684 0.0074771713 0.04993921 -0.012124627
0002c0 04 94 90 bd f4 cc 2c 3d a1 b0 9a 3c d0 f9 30 3c
       -0.07059482 0.042187646 0.018883051 0.010801747
0002d0 02 a4 91 3d da 81 da 3d de 1f be 3d e1 33 5c bd
       0.0711136 0.106692985 0.09283422 -0.053760413
0002e0 d1 ff f5 bc cb 44 2b bc 97 23 d0 3d f7 0f c7 3c
       -0.03002921 -0.010453413 0.10163038 0.024299605
0002f0 e4 60 4f bd c4 e9 08 3c 1b 13 2a bb 2f 04 22 3d
       -0.05062951 0.008356515 -0.002595133 0.03955477
000300 3a 6d 38 bd d7 57 8d 3c 63 75 f2 3d 48 9e 25 3d
       -0.04502604 0.0172538 0.11838796 0.040434152
000310 97 45 00 be 8c ab 3c 3d 77 8d fa bd 07 fe 55 bc
       -0.12526546 0.046062037 -0.122340135 -0.013061053
000320 a4 03 ce bd 7d df f3 bd 18 66 1d be 72 55 99 bd
       -0.10059288 -0.119078614 -0.15370977 -0.074870005
000330 b9 57 ee bd 2d c7 2b bd d9 d5 0d 3e 4b ce 0c be
       -0.116378255 -0.041937996 0.13851108 -0.1375057
000340 68 76 8e 3d 5a b6 17 be eb ce 07 3d c7 1c 15 bd
       0.06956178 -0.14815655 0.033156317 -0.036404397
000350 b6 3d 9d bd 1a b6 de 3c 53 07 e1 bd d6 df 8d 3c
       -0.07677786 0.027186442 -0.10987725 0.017318647
000360 27 ad 6e bd 71 41 3b be a8 62 fa bc bb 91 be bc
       -0.0582706 -0.18286683 -0.030564621 -0.02326285
000370 30 52 57 3d 8a 4f ee bd 65 cb be bd eb 80 70 3c
       0.052568614 -0.116362646 -0.09316138 0.014679174
000380 17 aa 0b bc 86 2d 0a bd 5a 33 0f bc 25 98 2d bd
       -0.008524439 -0.03373482 -0.0087402705 -0.042381424
000390 31 e2 7e 3d da c3 de 3d a9 70 b5 bc 58 4e a1 3d
       0.06222743 0.108771995 -0.022148447 0.07876271
0003a0 94 6d d1 bd 5d 55 80 bd b2 a8 58 3d 9a e3 4a 3c
       -0.102259785 -0.06266282 0.052895255 0.012383366
0003b0 d7 a1 7a 3d 77 fc be bc 2c f5 02 3e 05 82 db 3d
       0.0611895 -0.023313744 0.12788838 0.10718159
0003c0 03 b7 50 bd 94 6e 54 bd 6f 03 36 bd 64 16 6f bd
       -0.050955784 -0.051863268 -0.04443687 -0.058370963
0003d0 b5 68 02 bd 91 94 aa 3d 08 d2 26 bd 25 0b 64 bc
       -0.031838138 0.08329118 -0.040727645 -0.013918673
0003e0 dc 4a cd bc b9 37 31 bd 68 50 97 bd 1f be 5e 3d
       -0.02506011 -0.043266032 -0.07388383 0.054380532
0003f0 7c 80 db 3c 59 79 10 3d 48 78 b7 bd 77 a7 15 3d
       0.026794665 0.035271976 -0.08958489 0.03653666

9.bias f4 [84]
000000 0c 9a 52 ba d6 d2 16 be ad f7 7f bd c3 25 95 bd
       -0.0008033819 -0.14728865 -0.06249206 -0.07282593
000010 28 d3 10 be d5 ea 5e bd d2 0a da bd 45 73 89 3d
       -0.1414305 -0.054423172 -0.10646595 0.06711439
000020 a6 b8 93 bd 83 8f 1b 3e 6b 99 c4 3e 90 61 fe bd
       -0.07212953 0.15191464 0.383983 -0.12420952
000030 7a 29 8e bd ba b5 67 3d e0 6a 00 be 46 cb f2 3d
       -0.06941505 0.056569792 -0.1254077 0.118551776
000040 5e 5c 44 be 2d 83 bd 3d 55 72 15 3d 53 33 1a bd
       -0.1917586 0.092535354 0.03648599 -0.037646603
000050 3f de 04 bd de 16 9a 3d e0 14 8a bd 00 0a 97 bc
       -0.032438513 0.07523893 -0.06742263 -0.018437386
000060 a6 4f 1b bd 01 5d 0f 3e 2a 25 59 3d 2d 85 69 bd
       -0.037917756 0.14000322 0.053013958 -0.057011772
000070 b8 84 f5 3d df dc 33 bd e5 f4 fc b8 b6 b1 98 bd
       0.11988205 -0.04391181 -0.000120619115 -0.07455771
000080 4f 38 e3 3d 47 b9 09 bb 3b d1 a2 3d 79 21 42 bd
       0.110947244 -0.0021014975 0.07950064 -0.047395203
000090 82 f9 21 3e 97 5a 40 bd b1 b4 1e bd a2 7b 6a bd
       0.15817836 -0.046961393 -0.03874654 -0.05724681
0000a0 69 eb d8 bc 52 4f 85 bd 03 f8 a0 3e d2 3c 11 bd
       -0.02647944 -0.0650927 0.31439218 -0.035458393
0000b0 cf 53 15 be 25 c1 b6 bc 71 ac 0b 3e d3 85 2a 3e
       -0.14582752 -0.022308895 0.1364 0.16652612
0000c0 9f 2a 63 bd 12 63 2c bd 6e 04 56 3c 85 f3 3c 3e
       -0.05546057 -0.04208667 0.01306258 0.1845227
0000d0 26 a1 95 3e 07 4c 10 bd d4 0f aa bd 6f 39 f2 3b
       0.2922451 -0.035228755 -0.083038 0.0073921005
0000e0 4e 0d 91 3e 5f 34 b7 3b 10 1e 62 bc 7c de 76 3c
       0.28330463 0.00559096 -0.013801113 0.015067693
0000f0 0f 09 51 bd da 31 63 bd 5d 8a ff 3d b5 fe 82 bd
       -0.05103403 -0.055467464 0.124775626 -0.06396238
000100 50 62 de 3d d2 6d 26 bd 81 d4 26 bc e8 84 c7 bd
       0.10858595 -0.040632077 -0.010182501 -0.09742147
000110 ce d7 11 3e d6 9c 84 3c dd aa 17 3d 4b f1 46 3d
       0.14242479 0.016188066 0.037028182 0.04856996
000120 13 06 5f be c6 ed a6 bd 1b b0 51 bd f3 70 65 3c
       -0.21779661 -0.081508204 -0.051193338 0.01400398
000130 7d 72 32 be 47 5f f9 bc a2 cc 2e 3d 5a 20 49 3d
       -0.17426486 -0.03044094 0.04267562 0.04910312
000140 4b 6f e0 3d ac 3a 3d 3e a6 a3 ff 3c ee df e5 3c
       0.109587274 0.18479413 0.031205963 0.02806088

11.weight f4 [10, 84]
000000 a1 f3 4b 3e af 5b 88 bd ab 38 3f bd 9c 3b a3 3c
       0.19917156 -0.06658112 -0.046684902 0.019925885
000010 22 0a 18 be 27 56 a9 bd 88 f7 8a 3a 90 e6 c5 bd
       -0.14847615 -0.082683854 0.0010602335 -0.09663117
000020 16 07 52 3d 7c 07 46 3c f5 76 83 be e7 3d f4 3d
       0.05127629 0.012086745 -0.25676695 0.119258694
000030 0a f8 78 bd 42 44 8b bd 5c 6b 78 3e e4 ac da bd
       -0.060783423 -0.068001285 0.24259704 -0.106775075
000040 2e b1 34 3e 2c 2f 62 bd 03 67 f3 3d ab 77 c7 3d
       0.17645714 -0.055220768 0.11884882 0.09739622
000050 b1 f5 80 bd a9 43 a8 be 58 73 4e 3e cd 0c 23 be
       -0.06296862 -0.3286412 0.20161188 -0.15922852
000060 6d 96 48 3e 2d 12 92 3d 32 d5 d6 3b f1 1a b6 3d
       0.19588633 0.07132373 0.0065561766 0.088918574
000070 18 31 5c bd eb ac 94 bd 72 46 a0 3e f4 b3 cb bd
       -0.053757757 -0.07259544 0.31303746 -0.09946433
000080 00 61 3d 3d 9f 20 8b 3e b9 b6 6d 3c c7 12 6d bc
       0.046235085 0.27173325 0.0145088965 -0.014469809
000090 05 2e 18 3d a7 1c 2c 3e ec e9 3d 3e 7b 2c a1 3d
       0.037153263 0.16807805 0.18546265 0.07869812
0000a0 19 c7 9f 3d 89 82 ca bd 63 63 4a bd 0c 57 aa 3e
       0.07801647 -0.09888179 -0.04941119 0.33269536
0000b0 09 6c ab 3e e8 93 e5 3d fd ae 5f 3d 9d 16 53 bd
       0.33480862 0.112098515 0.05461024 -0.051535238
0000c0 b9 8a e0 3d 08 82 0f 3e 14 00 c4 bd 5f 8f c0 3d
       0.10963959 0.14014447 -0.095703274 0.09402346
0000d0 13 71 0b be f6 5f df 3d e9 7e b5 bc 1f 25 e5 bd
       -0.13617353 0.10906975 -0.022155242 -0.11188721
0000e0 65 b1 36 be a2 8c 75 3d 00 27 8d 3e 53 6c b0 bb
       -0.17841108 0.05994857 0.27568817 -0.005384007
0000f0 da ab cc 3e ad 97 50 be a4 07 f4 be e0 74 09 3e
       0.39974862 -0.2037036 -0.4766208 0.1342349
000100 52 bf a7 3c bc c7 8e 3d f4 23 61 be 45 fd 4b 3e
       0.02047697 0.0697169 -0.21986371 0.19920833
000110 15 fb 5d be f0 33 32 be de 1a 36 be 79 58 22 3d
       -0.21677811 -0.17402625 -0.17783687 0.039635155
000120 09 e3 02 3e 89 62 8c 3e 20 2e a9 3e 4c ea 4d 3e
       0.1278192 0.27418926 0.33043003 0.20108908
000130 6e 1f 60 3e 91 28 02 3d d0 db 0e bd c5 15 30 3e
       0.2188699 0.03177697 -0.0348776 0.17195804
000140 d8 15 37 be 11 78 8f be 2b 9c 48 3e 5f 6c f0 be
       -0.17879426 -0.2802129 0.19590823 -0.4695768
000150 40 0d 83 3e 47 d6 a2 3d 5c 4d de 3d 5e 9e ee 3d
       0.25596046 0.079510264 0.10854599 0.116513
000160 30 a3 43 3d 77 54 24 3e 6b 94 66 bc 38 68 15 bd
       0.04776305 0.16047846 -0.014073472 -0.036476344
000170 e8 d4 2c be 0c 26 9a be 9b 66 ba be 79 c2 07 be
       -0.16878092 -0.30107152 -0.36406407 -0.13257779
000180 75 90 b3 bc 9d c1 1e be 65 98 8a ba f6 92 bb bd
       -0.021919468 -0.15503545 -0.0010573982 -0.0915889
000190 4e f3 db 3e 13 4d 53 be 88 65 8b 3d 55 81 23 3e
       0.42959064 -0.2063487 0.06806475 0.15967305
0001a0 d9 27 a1 3d 4b fe 36 3d 00 3c 31 bd 12 17 4a bd
       0.078689285 0.044676106 -0.04327011 -0.049338408
0001b0 e1 8e e6 3d d9 c2 18 be f7 9f 7d be 87 ca b2 3c
       0.11257721 -0.14918078 -0.24768053 0.021825088
0001c0 ec b8 8a 3e 1e 11 15 bd 02 69 88 be eb 81 32 3e
       0.2709421 -0.036393277 -0.26642615 0.17432372
0001d0 fe a2 29 3d 7b b5 e4 bd ac 55 87 be ec b8 36 be
       0.041415207 -0.11167427 -0.2643255 -0.1784398
0001e0 79 98 cb be 68 7e 09 be e4 40 ac be 1e 5c bb bd
       -0.39764765 -0.13427126 -0.33643258 -0.09148429
0001f0 a0 7f 3d be 42 56 ab bc 0d 2f 1b be 13 f5 27 be
       -0.18505716 -0.020915154 -0.15154667 -0.16402082
000200 30 51 a2 bd 89 91 fa 3b c4 42 4a 3e 88 ce 7d bd
       -0.079256415 0.0076467437 0.19752032 -0.06196454
000210 af da 1c bd bd 82 8f bd 15 9b 16 3d e6 32 37 be
       -0.03829449 -0.07007358 0.03676899 -0.1789051
000220 9f ed c4 bc 4a 25 7a 3e 8d 3e 89 3e a7 08 b7 3d
       -0.024039088 0.24428287 0.26805535 0.08937197
000230 03 19 0c 3e 4a 5d b8 3e 1f 89 56 bc 62 0e be 3e
       0.13681416 0.36008674 -0.013094216 0.37120348
000240 5e 8f 2b be f7 4f 06 be 44 73 39 3d 02 f1 72 3c
       -0.16753909 -0.13116442 0.04527594 0.014827969
000250 db 2c 35 3e f9 16 17 bd 3d 4d 80 3b 6a f7 1e be
       0.17692892 -0.036887143 0.0039154575 -0.15524068
000260 fd 4b dd 3d 72 cd 69 be d0 ed 9f bd 13 54 0d be
       0.10805509 -0.22832277 -0.07809031 -0.13801603
000270 bd de 8d bd 77 6b 0f be 43 d5 1e be d2 a2 86 be
       -0.069272496 -0.14005838 -0.1551104 -0.26296097
000280 67 89 c4 3e 36 ad 8a bd ad cc 05 be d4 e6 7b 3e
       0.3838608 -0.067713186 -0.13066359 0.24599773
000290 49 90 93 bd 26 07 77 be 54 88 5e bd 1a e3 6f bd
       -0.072052546 -0.2412382 -0.05432923 -0.05856619
0002a0 a6 27 d6 3d bd 46 68 3e 8a 4c a2 bd 4f 80 01 3e
       0.10456781 0.22683235 -0.07924755 0.12646602
0002b0 b2 26 82 be b6 9a 27 3e 76 e7 a0 3e 54 55 0b 3e
       -0.25420147 0.16367611 0.3142659 0.13606769
0002c0 8c b9 3f 3e 81 57 4a 3e 43 52 91 3e 4c cb 1e 3e
       0.18723124 0.19759943 0.28383073 0.15507239
0002d0 60 97 21 be 4c 7b 24 be 0d 3d 07 be 0b 99 ac bc
       -0.15780401 -0.16062659 -0.13206883 -0.02106907
0002e0 80 bd 11 be bd 57 23 3e bd 1e 76 be e9 3c 83 bd
       -0.14232445 0.15951438 -0.24035163 -0.06408102
0002f0 f2 d0 a6 bb 98 b5 8a 3e 22 12 f0 3d 01 e0 2c 3e
       -0.005090826 0.2709167 0.117222086 0.16882326
000300 02 da bb 3e 7f d4 ca 3c ef 8c 9c 3d f7 db 18 be
       0.36689764 0.02475953 0.076440684 -0.1492766
000310 23 1a 46 3c 53 61 10 3e d7 4d 9b be c0 c6 8e 3e
       0.012091192 0.14099626 -0.30332825 0.2788601
000320 00 4a a5 bd d1 d7 35 3e 39 8d ae 3e 88 2a 01 bc
       -0.08070755 0.17758109 0.3409212 -0.007883675
000330 e8 e5 9a bd 59 19 e5 b6 d4 b2 3f 3e 9d d7 7f 3c
       -0.075633824 -6.8276827e-06 0.18720561 0.015615371
000340 8b 53 7b be 89 91 c0 3d 55 25 ed 3d 7d 31 65 bc
       -0.24543588 0.09402759 0.11579386 -0.01398885
000350 d4 02 93 3e 6c 97 bf 3e 4d 98 b3 3d b9 58 86 3e
       0.28713095 0.37420213 0.087692834 0.26239565
000360 b8 45 12 3d bf 56 38 be 71 1a 59 be 75 1f 84 bc
       0.03571102 -0.18001841 -0.21201493 -0.016128281
000370 65 d3 00 3d 82 4e ea bd 66 f2 07 3e 5d 49 3c be
       0.0314516 -0.114407554 0.13276061 -0.18387361
000380 f7 ef 09 3e d8 78 8e be b0 94 53 3d 15 e2 ee bb
       0.13470446 -0.2782657 0.05165547 -0.0072901347
000390 e0 61 f4 3d bc e8 9d 3d f1 d2 1c be 36 75 6e 3e
       0.11932731 0.07710406 -0.15314843 0.232869
0003a0 a4 92 29 3e 31 ab 0d bd 20 64 ff bc 93 1e 1e 3e
       0.16559845 -0.03458709 -0.031175673 0.1544135
0003b0 52 0f c2 be 7f 32 ab bd 94 4e 40 3d 71 e1 7a 3e
       -0.37902313 -0.08359241 0.046949938 0.24500062
0003c0 d8 43 91 be 88 f8 a2 be 46 87 8c 3e 79 fc d7 3b
       -0.28372073 -0.3183024 0.27446955 0.0065913764
0003d0 cb 52 ea bd 32 09 29 bd c7 4f 01 be 2d 98 08 3c
       -0.11441573 -0.041268535 -0.12628089 0.008337063
0003e0 b3 71 09 3e 6f 08 81 3e d2 81 6e 3e 6a e1 78 bd
       0.13422279 0.25201747 0.2329171 -0.060761847
0003f0 e6 d6 39 be 61 d2 6c be e7 39 12 bd 10 89 b2 bd
       -0.18148383 -0.23127128 -0.03569975 -0.08717549

11.bias f4 [10]
000000 0e ae 13 bf 2b 37 94 ba 5a 9b dd 3d dc 3a 3c 3e
       -0.5768746 -0.0011307945 0.108206466 0.18381828
000010 1a 09 f3 3e c3 49 aa be 71 b6 af 3e d9 a9 8d bd
       0.4746788 -0.332594 0.3431888 -0.069171615
000020 38 5d 7c bc b1 e3 11 be
       -0.015403084 -0.14247014
